best_model.pt (torch, 18549 bytes, 15 tensors)

gat_layers.0.att_src f4 [1, 4, 8]
0	0x3da327ae	0.07966553
1	0xbdd5823f	-0.10425233
2	0x3c59622b	0.013268034
3	0x3e157afe	0.14597699
4	0xbbaf74c3	-0.0053544953
5	0xbc1d180b	-0.009588252
6	0xbc3e6c2a	-0.011622468
7	0xbdc122c3	-0.094304584
8	0xbd2f04d6	-0.04272922
9	0x3d31aa48	0.043375283
10	0x3eb9a016	0.36254948
11	0x3d7218ef	0.05910581
12	0x3e5a9610	0.21346307
13	0xbe9778d1	-0.29584363
14	0x3eca76db	0.39543805
15	0xbcf0b591	-0.029383453
16	0x3e90a8cd	0.28253785
17	0xbeca0f79	-0.3946493
18	0xbb25fcd8	-0.0025327709
19	0xbe764fe5	-0.24053915
20	0xbe96ce20	-0.29454136
21	0xbb8c553e	-0.0042826226
22	0x3b4728ab	0.003038923
23	0xbeb80029	-0.35937622
24	0x3d5f6f29	0.05454937
25	0xbdda7a48	-0.106678545
26	0x3e39be05	0.18138893
27	0x3ed57234	0.41688693
28	0x3dd91509	0.10599715
29	0xbe2b8933	-0.16751556
30	0xba23d147	-0.00062491413
31	0x3d5b7eac	0.0535876

gat_layers.0.att_dst f4 [1, 4, 8]
0	0x33f4a106	1.13914254e-07
1	0xb24efa96	-1.2047755e-08
2	0xb28339a8	-1.5276626e-08
3	0xb6ae2851	-5.1902975e-06
4	0x36b8dce2	5.5093415e-06
5	0xb3da34cc	-1.016102e-07
6	0x324aaa71	1.1796701e-08
7	0xb2a97aa1	-1.9729955e-08
8	0xbe185291	-0.14875247
9	0xbdaf3c79	-0.08556456
10	0xbe6d2214	-0.23157531
11	0x3d8b0108	0.06787306
12	0xbd7abdc3	-0.061216127
13	0xbe0a0728	-0.13479292
14	0xbde3ed4f	-0.111292474
15	0xbe069eb1	-0.13146473
16	0x34111044	1.3510095e-07
17	0xb3b1eb18	-8.284968e-08
18	0x340318be	1.2209327e-07
19	0xb3e0eaaf	-1.04735015e-07
20	0x3237cae6	1.0698136e-08
21	0x3027fce8	6.111365e-10
22	0x361dfce6	2.354203e-06
23	0x34fc2377	4.6964462e-07
24	0xbd69d9c2	-0.057092436
25	0x3d390488	0.045170337
26	0xbc8a3f45	-0.016875872
27	0x3d095971	0.033532564
28	0xbc8402d2	-0.016114626
29	0x3d094800	0.03351593
30	0x3c11d162	0.008900018
31	0xbbee044a	-0.007263695

gat_layers.0.bias f4 [32]
0	0xbbcb0e7c	-0.006196795
1	0xbd6adb01	-0.057337765
2	0xbe303aca	-0.17209926
3	0xbeb8fc8b	-0.36130175
4	0x3ce36841	0.027759673
5	0x3d39573e	0.045249216
6	0x3dfb84ea	0.12281211
7	0xbd831f11	-0.0640241
8	0xbd6f1b93	-0.058375906
9	0xbe78b12a	-0.24286333
10	0x3e9da051	0.30786374
11	0xbdd55489	-0.104165144
12	0x3d635e82	0.05551005
13	0xbd30d4f3	-0.043171834
14	0xbe8a5183	-0.27015314
15	0xbe3dcfe6	-0.18536338
16	0xbe44d19a	-0.19220582
17	0xbdc0429e	-0.09387706
18	0xbe887dd0	-0.26658487
19	0x3ea031a8	0.31287885
20	0x3e02d54b	0.12776677
21	0xbcb3db06	-0.021955024
22	0xbd096cfb	-0.033551197
23	0xbc728b2e	-0.014803691
24	0x3e53ffc9	0.20703043
25	0x3e2b1431	0.16706921
26	0xbe45c03e	-0.19311616
27	0x3cc42b11	0.023946317
28	0xbe445c61	-0.19175865
29	0xbe329592	-0.17439869
30	0x3d965650	0.073406816
31	0xbdf514b4	-0.119668394

gat_layers.0.lin.weight f4 [32, 4]
0	0xbd836c86	-0.064171836
1	0xbe03cebd	-0.12871833
2	0xbb691446	-0.0035565062
3	0xbb4ee63a	-0.0031570331
4	0xbd27cc76	-0.040966474
5	0x3e193ee8	0.14965403
6	0xbc5731d2	-0.013134437
7	0xbb962930	-0.0045825467
8	0xbb10bef9	-0.0022086485
9	0xbcc43035	-0.023948768
10	0x3d2cc5c2	0.042180784
11	0x3c2b0972	0.010439264
12	0xbd8eecfa	-0.069787934
13	0xbec0ca64	-0.37654412
14	0x3d170c6a	0.036877073
15	0x3bb15a0f	0.005412347
16	0xbe5fd823	-0.21859793
17	0x3e28d660	0.16488028
18	0xbc4b1edc	-0.012397494
19	0xbb5d637f	-0.0033781228
20	0xbe880d51	-0.2657266
21	0x3e11422c	0.14185399
22	0xbcd1523d	-0.02555191
23	0x3b08b9c9	0.002086269
24	0x3c0a7e5c	0.008452978
25	0x3d2b1291	0.041765753
26	0xbc6c963c	-0.014440116
27	0x3a60e58b	0.00085791264
28	0x3de89449	0.11356408
29	0x3decbdce	0.1155964
30	0x3bb2f1f4	0.005460972
31	0xbbb6f6a0	-0.005583599
32	0x3d3537e2	0.044242747
33	0xbe268fbf	-0.16265772
34	0xbc41f8f4	-0.01183914
35	0xbbbdaff7	-0.005788799
36	0x3d2d7629	0.042349014
37	0xbd948a00	-0.07252884
38	0x3ce7cff8	0.02829741
39	0x3b766c78	0.0037601274
40	0xbe2fae9e	-0.17156455
41	0xbe60bbc1	-0.21946622
42	0xbd356155	-0.044282276
43	0x3b13ada6	0.0022533922
44	0x3e343803	0.17599492
45	0xbdf565bb	-0.11982294
46	0x3c5560ad	0.013023538
47	0x3b651a76	0.00349584
48	0x3e2c8201	0.16846468
49	0xbde761ca	-0.11297949
50	0xbd38265e	-0.044958465
51	0xbbed4ff4	-0.007242197
52	0xbe7cd717	-0.24691425
53	0xbdb19414	-0.08670822
54	0xbc545f95	-0.012962242
55	0xbbf9c8f3	-0.007622832
56	0xbe58af4a	-0.21160617
57	0xbe8ee7a5	-0.27911106
58	0x3d09e233	0.033662986
59	0x3c4be383	0.01244438
60	0x3d6243dc	0.055240497
61	0xbe496a59	-0.19669475
62	0x3d8c5f25	0.06854085
63	0x3c9ca969	0.01912375
64	0xbecf57b3	-0.40496597
65	0x3d5fd096	0.054642282
66	0x3d4a0526	0.049321316
67	0x3b1aa431	0.00235964
68	0xbe8d8eaa	-0.27647907
69	0xbdfc89df	-0.12330984
70	0x3c39e66a	0.011346439
71	0xbb1ed260	-0.002423428
72	0xbe8675f0	-0.26261854
73	0x3c504e19	0.012713932
74	0x3d2eaead	0.042647053
75	0x3a899c86	0.0010498918
76	0xbe105c76	-0.14097771
77	0x3e249afb	0.16074745
78	0xbd348da0	-0.044080377
79	0xbb87920c	-0.004137283
80	0x3e5def1f	0.21673249
81	0xbd961c5d	-0.073296286
82	0xbcb99d40	-0.02265799
83	0xb9e04d20	-0.00042782072
84	0x3d309869	0.0431141
85	0xbca618ea	-0.020275552
86	0xbb363dc6	-0.0027807816
87	0xba59b515	-0.00083048764
88	0xbd5ee852	-0.054420777
89	0xbd9c6c6b	-0.076378666
90	0x3a9494bd	0.0011335831
91	0x399edffc	0.0003030299
92	0xbe90aa7c	-0.2825507
93	0xbe755402	-0.23957828
94	0x3c17b07e	0.009258388
95	0xba5d1dce	-0.0008434922
96	0x3e865035	0.26233068
97	0x3c168cd4	0.0091888495
98	0xbd1d8057	-0.038452473
99	0xbb73034d	-0.0037080825
100	0xbe9963f1	-0.29959062
101	0x3e9fc2ce	0.31203312
102	0xbdbe22dc	-0.09283993
103	0xbc1f070c	-0.00970627
104	0x3e2a8237	0.16651236
105	0xbead1f90	-0.33813143
106	0x3d34c1f0	0.044130266
107	0x3b927660	0.004469678
108	0xbdaf91fb	-0.085727654
109	0xbec6f0d5	-0.38855615
110	0x3a8a1895	0.001053589
111	0x39d6160d	0.0004083369
112	0x3df1e24a	0.11810739
113	0xbe62e14d	-0.22156258
114	0x3cb25e44	0.021773465
115	0xbb279090	-0.0025568344
116	0xbe4a7d6c	-0.19774407
117	0x3dffa581	0.12482739
118	0x3c9f9f31	0.019485088
119	0x3b2a52b7	0.0025989243
120	0xbd5e53bd	-0.054279078
121	0x3d32c3b1	0.043643657
122	0xbc8f5121	-0.01749474
123	0x3bff000b	0.0077819875
124	0x3d60177a	0.05470989
125	0xbd51e82a	-0.0512468
126	0x3ccd5cb4	0.025068618
127	0xbb4a553e	-0.0030873562

gat_layers.1.att_src f4 [1, 4, 8]
0	0xbbe5ff2b	-0.007018944
1	0x3d8bbb58	0.06822842
2	0xbd6162e8	-0.055025965
3	0x3e170bfd	0.14750667
4	0x3de8c51c	0.11365721
5	0x3d3e5a1d	0.046472657
6	0x3d9f01bb	0.07764002
7	0xbea15f40	-0.31517982
8	0x3e99fe95	0.30077043
9	0x3f131778	0.57457685
10	0x3e532b64	0.20622021
11	0xbe5c4eb3	-0.21514396
12	0x3e9cde53	0.3063837
13	0xbdb5cdfe	-0.088771805
14	0x3ebc851f	0.36820313
15	0x3ed12477	0.40848133
16	0x3daf1444	0.08548787
17	0x3e88cb3d	0.26717559
18	0x3e65fbc7	0.22459327
19	0x3c8a33c2	0.016870383
20	0x3dd58fb9	0.104278035
21	0xbdaa9327	-0.08328848
22	0xbe8719be	-0.26386827
23	0x3e902ea8	0.28160596
24	0xbe993eda	-0.29930764
25	0xbe6fe72c	-0.23428029
26	0xbe573858	-0.21017587
27	0x3ea160b7	0.315191
28	0xbee04eae	-0.43810028
29	0x3eb1c8bd	0.34723464
30	0xbef82c39	-0.4847124
31	0xbe234d6e	-0.15947506

gat_layers.1.att_dst f4 [1, 4, 8]
0	0x3cb1ee63	0.021720117
1	0xbd8879b7	-0.0666384
2	0xbd65df3a	-0.05612109
3	0x3d262d86	0.04057076
4	0xbd6064af	-0.05478352
5	0x3cced4d8	0.025247976
6	0xbc0e33e3	-0.008679363
7	0x3b97d6bb	0.004633752
8	0xbd268cd7	-0.04066166
9	0xbe779327	-0.24177228
10	0xbe107663	-0.14107661
11	0x3d46fdea	0.048581995
12	0xbdab65f8	-0.08369058
13	0xbe4a1d23	-0.19737677
14	0xbe22a0dd	-0.15881677
15	0xbc7137c1	-0.014722765
16	0x3da76e17	0.08175295
17	0xbcade010	-0.021225005
18	0xbd68816b	-0.056764048
19	0x3e0833c6	0.13301
20	0x3dfb8899	0.12281913
21	0x3e46fabc	0.19431585
22	0x3dfd81b5	0.12378255
23	0xbc4ba6ce	-0.012429906
24	0xbc94b73f	-0.018153785
25	0x3de34f7d	0.110991456
26	0xbe0ce266	-0.13758239
27	0x3e41a658	0.18911111
28	0xba4ae366	-0.00077395735
29	0x3ec242ec	0.37941682
30	0x3e73c597	0.23805843
31	0xbd86bf3b	-0.06579443

gat_layers.1.bias f4 [32]
0	0xbdc5e6b1	-0.096631415
1	0x3d35cfb5	0.044387538
2	0xbd9f36da	-0.07774134
3	0x3dff3c02	0.124626175
4	0xbd7a6b7e	-0.06113767
5	0xbd6ca95d	-0.057778705
6	0xbc0b753d	-0.0085118385
7	0x3dd8ba5a	0.10582419
8	0xbdb7f463	-0.0898216
9	0xbcf7e322	-0.030259673
10	0xbdb571eb	-0.08859619
11	0x3e1b397d	0.15158649
12	0xbdd73e90	-0.1050998
13	0xbdbbc3f6	-0.09168236
14	0xbdeceb53	-0.11568322
15	0x3cd74eb8	0.026282653
16	0xbdc4c913	-0.09608664
17	0xbd4fd327	-0.05073848
18	0xbddb6455	-0.10712496
19	0xbde6f57f	-0.112772934
20	0xbdaa66c9	-0.08320386
21	0x3e082955	0.13297017
22	0xbd8e7d2a	-0.06957467
23	0x3e061dbd	0.13097282
24	0x3e067ca5	0.13133486
25	0x3dacf953	0.08445992
26	0xbdc09656	-0.09403674
27	0xbbeb1cd2	-0.0071750665
28	0x3dcac7cd	0.0990139
29	0x3c694e82	0.014239909
30	0xbd94b1dd	-0.07260487
31	0x3dcd4521	0.10022951

gat_layers.1.lin.weight f4 [32, 32]
0	0x3cdcc0f3	0.026947474
1	0x3e7357d5	0.23763974
2	0xbd4d8192	-0.050172396
3	0xbe36ae95	-0.17840035
4	0xbce91329	-0.02845152
5	0x3dae64b9	0.08515305
6	0xbcdfefc6	-0.027336013
7	0xbe1b71ae	-0.15180084
8	0x3dcb1e24	0.09917858
9	0xbdd7cf77	-0.10537618
10	0xbd9d540d	-0.07682047
11	0x3d94b905	0.07261852
12	0x3e3313f3	0.17488079
13	0x3dbc500c	0.09194955
14	0xbdbfcfd8	-0.09365815
15	0xbc8279c3	-0.015927201
16	0x3e0b3aef	0.135967
17	0xbd7b460f	-0.06134611
18	0xbd88b456	-0.06675021
19	0xbc7b6b62	-0.015345426
20	0xbd0e930f	-0.034808215
21	0x3bd88537	0.0066076773
22	0x3ab8f032	0.001410967
23	0xbdf6783d	-0.120346524
24	0xbd8ce232	-0.06879081
25	0xbd7334f4	-0.059376672
26	0x3d784ecc	0.06062202
27	0xbdfa4dcd	-0.122218706
28	0xbd6d08b5	-0.05786963
29	0xbd960b3e	-0.07326363
30	0x3c5592f8	0.013035528
31	0xbdf9e577	-0.1220197
32	0x3b9d56f2	0.0048016245
33	0x3e54de99	0.2078804
34	0x3ce02ef1	0.027366133
35	0xb98aa317	-0.00026442923
36	0x3d0a6057	0.033783283
37	0xbd15b46a	-0.03654901
38	0xbd0d6d3c	-0.034528002
39	0xbdff709b	-0.1247265
40	0x3d21b85e	0.039482467
41	0xbdc918c8	-0.0981918
42	0xbc912690	-0.017718583
43	0x3e13f746	0.14449796
44	0xbd928be6	-0.0715559
45	0x3b8d8bef	0.00431966
46	0x3e103c6c	0.14085549
47	0x3d9d32ac	0.076756805
48	0x3dfd75e9	0.12376005
49	0x3c6320f8	0.013862841
50	0x3e63a219	0.22229804
51	0x3c1ed39b	0.009694005
52	0xbca7886b	-0.020450791
53	0xbc9abbd6	-0.018888395
54	0x3c821f3a	0.01588403
55	0x3cca31d7	0.024681969
56	0xbcef6486	-0.029222738
57	0xbc24b54d	-0.010052991
58	0x3cb96ec1	0.02263582
59	0xbd533e74	-0.05157323
60	0xbbc131f0	-0.0058958456
61	0xbcc1e287	-0.023667587
62	0xbd243bbc	-0.04009603
63	0xba056924	-0.00050892145
64	0x3bf067eb	0.0073366067
65	0xbd720696	-0.059088312
66	0x3ce494d3	0.027902996
67	0x3d30c547	0.04315689
68	0x3c51d769	0.012807705
69	0x3cc40518	0.02392821
70	0xbbf0d660	-0.0073497742
71	0xbc6502c3	-0.013977709
72	0x3c03597e	0.008016942
73	0x3bc996de	0.006152018
74	0xbc380237	-0.011230997
75	0x3b86f881	0.0041189794
76	0xbb302dec	-0.002688284
77	0x3b9882ce	0.004654265
78	0x3c02e9b8	0.007990293
79	0xbc85975b	-0.016307523
80	0x3cfdf4f8	0.0310006
81	0xba9f33d2	-0.0012146181
82	0xbd3dbb3a	-0.04632113
83	0xbd487186	-0.04893639
84	0x3d19ca67	0.03754654
85	0x3bd8063a	0.006592539
86	0x3b802893	0.003911087
87	0x3ce11e72	0.027480338
88	0xbc56eef5	-0.013118495
89	0xbccff4d2	-0.025385294
90	0x3d265e99	0.04061756
91	0x3c7f9bdd	0.015601126
92	0xbb537634	-0.00322665
93	0xbc4c3177	-0.012462965
94	0xbc18f9b3	-0.009336877
95	0x3c62d91c	0.013845708
96	0xbd1d50d2	-0.038407154
97	0xbbb2513d	-0.0054418133
98	0xbde89486	-0.113564536
99	0xbe220367	-0.1582161
100	0x3e0a281f	0.13491867
101	0xbdae20a6	-0.08502321
102	0xbd2145d5	-0.039373238
103	0xbe03a595	-0.12856133
104	0xbdf977ce	-0.12181054
105	0xbe4e1793	-0.2012618
106	0x3dfaf0c0	0.12252951
107	0xbe35bdc4	-0.17748171
108	0xbe12466a	-0.14284673
109	0xbd3550d0	-0.044266522
110	0x3b9da924	0.004811423
111	0x3e09019d	0.13379522
112	0x3d366a26	0.044534825
113	0xbd1b9578	-0.03798434
114	0x3e2669b0	0.16251254
115	0x3c765979	0.01503598
116	0xbdaa84b1	-0.0832609
117	0xbe0c7546	-0.13716611
118	0x3b889267	0.004167843
119	0xbe04a42d	-0.12953253
120	0x3d3fff5e	0.046874397
121	0x3d7ef391	0.062244
122	0x3e10eff6	0.14154038
123	0x3d249a02	0.040185936
124	0xbe129e10	-0.14318109
125	0xbd44034a	-0.0478547
126	0x3c572ee6	0.01313374
127	0xbe227a2d	-0.15866919
128	0xbb297783	-0.0025858588
129	0xbdf0e307	-0.11762052
130	0xbcca4efc	-0.024695866
131	0x3c3b1b32	0.011420058
132	0xbd3528cd	-0.044228364
133	0xbd75c25e	-0.059999816
134	0x3bbfe042	0.005855591
135	0xbdb2d336	-0.087316915
136	0x3cd6863e	0.026187059
137	0xbd10de2c	-0.03536813
138	0xbc2f54c1	-0.010701359
139	0xbd10a72b	-0.035315674
140	0x3ca18cee	0.01972052
141	0x3a9991b4	0.0011716397
142	0x3d43a47e	0.047764294
143	0xbd67ae3d	-0.05656265
144	0xbd5770ff	-0.052597996
145	0xbb7f13ce	-0.0038921717
146	0x3c77b3f5	0.015118589
147	0xbcc0e183	-0.023545032
148	0x3c792173	0.015205729
149	0x3c84d178	0.016213164
150	0xbba38daa	-0.004991253
151	0xbc689940	-0.014196694
152	0x3bcb091e	0.006196155
153	0xbc72745b	-0.014798249
154	0xbc48bf85	-0.012252693
155	0xbbe3688f	-0.0069399546
156	0xbbbcc23d	-0.0057604597
157	0x3d7509a7	0.05982366
158	0x3c3c9859	0.011510932
159	0x3d390b9d	0.04517709
160	0x3cb457ea	0.022014577
161	0x3de671b3	0.11252155
162	0xbcfa70a7	-0.030571295
163	0xbdae026c	-0.08496556
164	0xbd108d04	-0.035290733
165	0x3d235319	0.03987417
166	0x3d164479	0.036686394
167	0x3e1cab9d	0.1529984
168	0x3c5f2f26	0.013622081
169	0xbd3824bd	-0.04495691
170	0xbc0c9cb8	-0.008582287
171	0xbce9a034	-0.028518774
172	0x3c6380cb	0.013885687
173	0x3d096c3f	0.033550497
174	0x3ba82f2c	0.0051325765
175	0xbd2445c0	-0.04010558
176	0xbd3149d1	-0.043283287
177	0x3ce16ecd	0.027518654
178	0x3d9f9ddc	0.07793781
179	0xbcb13c67	-0.021635247
180	0x3c01be2a	0.007918874
181	0xbd40b14d	-0.047044087
182	0x3c2bac78	0.0104781315
183	0xbd224ab1	-0.039622013
184	0x3c4fc37f	0.012680887
185	0xbc9329ba	-0.017964233
186	0xbdb9cd5a	-0.09072371
187	0x3ca14d43	0.019690162
188	0xbbde92fd	-0.0067924247
189	0xbc4a1e8e	-0.012336386
190	0x3ce383ae	0.02777275
191	0x3ced6d8b	0.028982898
192	0x3b48502f	0.0030565371
193	0xbdbefaec	-0.09325203
194	0xbd1754b2	-0.036946006
195	0xbd01d8c4	-0.031700864
196	0xbd687909	-0.056756053
197	0xbcfba17c	-0.03071665
198	0x3c6dbbda	0.014510119
199	0x3d08fdee	0.03344529
200	0x3c09943d	0.008397159
201	0xbd0d8d2d	-0.034558464
202	0x3aaf214c	0.0013361364
203	0xba5a5e4c	-0.00083300914
204	0x3c885328	0.016641214
205	0x3c52727e	0.01284468
206	0xbcbe97d2	-0.023265753
207	0xbc161631	-0.009160564
208	0xbd5c9ca7	-0.053860333
209	0x3c252273	0.010079014
210	0x3bea4004	0.0071487445
211	0xb83ecdc9	-4.5491182e-05
212	0xbc8a223a	-0.016862024
213	0x3c09d8da	0.008413518
214	0x3bef7e15	0.0073087313
215	0x3c2d4d1b	0.010577465
216	0x3bee5fdf	0.0072746123
217	0xbc30a0cb	-0.0107805235
218	0xbd0ce50d	-0.034398127
219	0x3bc5a75b	0.006031913
220	0xbc9ab102	-0.018883232
221	0xbca7e0b3	-0.020492887
222	0x3c8352c8	0.016030684
223	0xbd107dc2	-0.035276182
224	0x3d24d79a	0.040244676
225	0x3ddaf1ef	0.106906764
226	0x3db75c05	0.08953098
227	0xbe448a62	-0.19193414
228	0x3e0bb5da	0.1364359
229	0x3e028e1e	0.12749526
230	0x3d57a82e	0.052650623
231	0x3dc828fb	0.097734414
232	0x3cc9fcaf	0.024656622
233	0x3db9a381	0.09064389
234	0x3e1f36f0	0.155483
235	0xbd679005	-0.056533832
236	0xbe1bb28b	-0.15204827
237	0xbc9688bc	-0.018375747
238	0x3b4e9c3a	0.0031526224
239	0x3c4d64b4	0.0125362165
240	0xbdde4838	-0.108536184
241	0x3d4ce3c0	0.050021887
242	0xbe90a011	-0.2824712
243	0x3e145990	0.1448729
244	0x3d1705ff	0.036870953
245	0x3d1bd5f3	0.038045835
246	0x3d743fbf	0.059631106
247	0xbd5a767c	-0.05333565
248	0x3daa9b13	0.08330359
249	0x3dd85409	0.105629034
250	0xbd13ee76	-0.036116086
251	0xbbee4112	-0.0072709406
252	0xbe4f5d8c	-0.20250529
253	0xbdbbfbd0	-0.09178889
254	0xbd45bb5e	-0.04827439
255	0x3e0bea52	0.13663605

residuals.0.weight f4 [32, 4]
0	0xbd894ca3	-0.067040704
1	0x3d790157	0.060792293
2	0x3a65dc76	0.0008768508
3	0xb91d17d6	-0.00014981566
4	0x3a3dfa5e	0.00072470855
5	0x3ddcba14	0.10777679
6	0xbc1e340b	-0.009655963
7	0xba880555	-0.0010377566
8	0xbd4755b8	-0.048665732
9	0x3eab2871	0.33429292
10	0x3e18e824	0.14932305
11	0x3ccd2350	0.025041252
12	0x3e711cde	0.23546168
13	0x3eb73a60	0.35786724
14	0x3e201e7f	0.15636633
15	0x3b938589	0.0045020026
16	0xbe53bf0e	-0.2067835
17	0x3ec28472	0.37991673
18	0xbab7e77e	-0.0014030782
19	0x3bbddfa2	0.0057944814
20	0xbec5c609	-0.3862765
21	0x3eb10bae	0.34579223
22	0xbdcfe7a1	-0.101516016
23	0xbbb49a52	-0.0055115605
24	0xbdd027b0	-0.1016382
25	0xbdc70340	-0.09717417
26	0xbd28024d	-0.04101782
27	0x3b0f8368	0.0021898393
28	0x3ddd8865	0.10817031
29	0xbdd6ddb8	-0.10491508
30	0x3cd59aa6	0.026074719
31	0xbb85aa64	-0.00407915
32	0xbb90af91	-0.0044154604
33	0xbd2437f4	-0.040092424
34	0xbc1c2a59	-0.009531581
35	0xbb0cdc11	-0.0021493474
36	0xbcccb070	-0.024986476
37	0x3e98b8e2	0.29828554
38	0x3e12a7d6	0.14321837
39	0x3c96da17	0.01841454
40	0xbe7195e5	-0.23592336
41	0x3e863d0a	0.26218444
42	0xbde77115	-0.113008656
43	0xbb98922a	-0.004656096
44	0xbea50c9e	-0.3223619
45	0x3ec93e29	0.39305237
46	0x3ce24fe3	0.027625984
47	0x3bd527f0	0.006505005
48	0x3ec3beb7	0.3823144
49	0xbf281b19	-0.6566635
50	0xbe38d767	-0.1805092
51	0xbcf2caa1	-0.029637637
52	0xbd73069a	-0.059332468
53	0xbd52b0ba	-0.05143807
54	0xbc50a6e3	-0.012735101
55	0xbb7058f7	-0.003667412
56	0x3e933c7b	0.2875708
57	0x3e89f3ee	0.26943916
58	0x3e303266	0.17206725
59	0x3c030cd8	0.007998668
60	0x3e506546	0.20351133
61	0x3ded178f	0.11576759
62	0x3e72949f	0.23689507
63	0x3cc74021	0.024322571
64	0x3e4d527b	0.20050995
65	0x3ebeac8d	0.3724102
66	0x3e13e822	0.1444402
67	0xb9b49a3f	-0.00034447198
68	0xbcb793a5	-0.02240927
69	0xbd679370	-0.05653709
70	0x3b5d4d6b	0.0033768069
71	0xba86a546	-0.0010272644
72	0x3e58f2f1	0.21186425
73	0x3e9e893a	0.3096407
74	0x3dfca05c	0.123352736
75	0xbab4c2de	-0.0013790985
76	0xbe493159	-0.19647731
77	0xbd6c9052	-0.057754822
78	0xbe0cb724	-0.13741738
79	0xbbb74784	-0.005593242
80	0xbec3fa0d	-0.3827671
81	0x3e3b40fd	0.1828651
82	0xbdf1adde	-0.11800741
83	0xbbf87156	-0.00758187
84	0xbcd4cf53	-0.025977766
85	0xbdb7d75b	-0.08976623
86	0xbb539771	-0.003228631
87	0xbacf3380	-0.0015808195
88	0xbdfbf719	-0.123029895
89	0xbdd69a06	-0.104785964
90	0x3b36c5d6	0.0027888916
91	0xba9f5a26	-0.0012157604
92	0xbd1679c6	-0.036737226
93	0xbd229a62	-0.039698012
94	0xba273302	-0.0006378145
95	0x399cbf1e	0.00029897032
96	0xbec5e770	-0.38653135
97	0x3bd20592	0.0064093554
98	0xbe0ace8e	-0.13555357
99	0xbc131fcf	-0.008979752
100	0xbe15b178	-0.1461848
101	0x3be98d90	0.0071274713
102	0xbe945ba3	-0.28976163
103	0xbcbbde22	-0.02293307
104	0x3ce96c03	0.028493887
105	0x3e9dd123	0.3082362
106	0x3e5f1383	0.21784787
107	0x3cb13bdc	0.021634988
108	0xbb864d71	-0.004098587
109	0xbad506d7	-0.0016252649
110	0xbb9bf6e2	-0.0047596553
111	0xb9040a50	-0.00012592343
112	0x3e30cd02	0.17265704
113	0x3d77fdfe	0.06054496
114	0x3d931518	0.07181758
115	0xbb3e017e	-0.0028992589
116	0x3e967a9c	0.2939042
117	0xbd5ffa87	-0.05468228
118	0x3db1d7d8	0.08683747
119	0x3b342d87	0.0027492957
120	0x3e97a05f	0.2961454
121	0xbed3211f	-0.41236207
122	0xbdf3f840	-0.11912584
123	0xbafd0b21	-0.0019305685
124	0xbe1947f3	-0.14968853
125	0x3ebfae12	0.37437493
126	0x3dcda955	0.10042063
127	0x3c183332	0.00928955

residuals.0.bias f4 [32]
0	0x3b5117df	0.0031905097
1	0x3e053782	0.13009456
2	0xbe51e62a	-0.20497957
3	0xbe05a5dc	-0.13051552
4	0x3e1dc86f	0.1540849
5	0x3ea7ac16	0.3274848
6	0x3e565909	0.20932402
7	0x3c8d55a7	0.017252756
8	0xbdaadedf	-0.083432905
9	0xbece514a	-0.40296394
10	0x3f11644a	0.56793654
11	0x3cd41143	0.025887137
12	0xbd2239c3	-0.039605867
13	0xba9ed248	-0.0012117112
14	0x3b5b61d7	0.0033475065
15	0xbecb7a9a	-0.39741975
16	0xbe99bd61	-0.30027297
17	0xbdf2a4dc	-0.11847851
18	0xbed1f970	-0.41010618
19	0x3ebf9071	0.37414888
20	0x3becc352	0.0072254324
21	0xbd40dc11	-0.04708487
22	0xbd12412f	-0.035706695
23	0xbc73f649	-0.014890262
24	0x3da3d3bc	0.079993695
25	0x3ee53357	0.44765732
26	0xbea9b956	-0.33149213
27	0x3cc42174	0.023941733
28	0xbca0bba6	-0.019620728
29	0xbda1a781	-0.07893277
30	0x3d90668f	0.070508115
31	0xbddc29f5	-0.1075019

residuals.1.weight f4 [32, 32]
0	0xbd261ef4	-0.040556863
1	0x3dc63415	0.096779026
2	0x3dd8c95d	0.10585282
3	0x3e036297	0.12830578
4	0xbd86f2b9	-0.065892644
5	0xbdd5df56	-0.104429886
6	0xbd340632	-0.04395122
7	0xbda3af1e	-0.07992385
8	0x3d1ba079	0.037994836
9	0x3df65413	0.12027755
10	0xbcad8e05	-0.021185884
11	0x3d0af628	0.03392616
12	0xbdc79899	-0.097459026
13	0x3ba658bd	0.0050764964
14	0x3d8d9321	0.06912828
15	0x3d3bcd33	0.04584999
16	0x3ca03415	0.019556085
17	0xbd211dfd	-0.03933524
18	0x3d8a9582	0.067667976
19	0xbdd0881b	-0.1018221
20	0xbdcf7f5a	-0.10131712
21	0xb8c597e8	-9.421987e-05
22	0xbc807aa3	-0.015683478
23	0x3bb9ec28	0.005673904
24	0xbd9fd2d7	-0.078038864
25	0xbe031dc1	-0.12804319
26	0x3cbe134b	0.023202559
27	0xbc3f88be	-0.011690317
28	0x3d54f709	0.051993404
29	0xbc9f8241	-0.01947129
30	0xbd16d107	-0.036820438
31	0x3d36f302	0.044665344
32	0xbc8b25a5	-0.016985724
33	0x3da67bc4	0.08129075
34	0x3c15a5bf	0.009133755
35	0xbcff4418	-0.0311604
36	0xbce1a1de	-0.027543005
37	0x3d73aca9	0.059490833
38	0xbc89a563	-0.016802495
39	0x3d157de6	0.03649702
40	0xbca1408d	-0.0196841
41	0x3cb92820	0.02260214
42	0xbd00f0e9	-0.03147975
43	0x3b500571	0.0031741525
44	0x3cd9322a	0.026513178
45	0x3b5683c6	0.0032732352
46	0xbd924f3a	-0.071440175
47	0xbd79d98a	-0.060998477
48	0x3d26e9d5	0.040750343
49	0x3c0da4d9	0.00864526
50	0x3de88b11	0.1135465
51	0x3bdaf11b	0.006681574
52	0x3d5036af	0.0508334
53	0x3c22aaab	0.009928386
54	0xbce638dc	-0.028103285
55	0xbd61272c	-0.054968998
56	0x3ccff5e9	0.025385814
57	0x3c723ed9	0.014785492
58	0xbd5f60d0	-0.054535687
59	0xbc81ef6a	-0.015861232
60	0xbd26c4f5	-0.040715177
61	0xbd52b1b2	-0.051438995
62	0x3d978875	0.07399074
63	0xbd450f20	-0.048110127
64	0x3c067de3	0.008208725
65	0xbd6a7468	-0.05723992
66	0x3d0abab4	0.03386946
67	0x3c35f77e	0.01110637
68	0xbc1ebd2e	-0.009688659
69	0xbd3a6706	-0.045508407
70	0xbd00a0de	-0.031403415
71	0xbbac7f24	-0.00526418
72	0x3c15e23d	0.009148178
73	0x3d94fafd	0.07274435
74	0xbca3eb37	-0.02000962
75	0x3c5f1736	0.013616374
76	0xbd5855c5	-0.05281617
77	0xbc7c63a0	-0.015404612
78	0x3c00e8e3	0.0078680245
79	0x3d810d62	0.06301381
80	0xba4d2ebc	-0.00078270934
81	0x3be9bac6	0.007132861
82	0x3bbba65e	0.0057266196
83	0xbd02b013	-0.0319062
84	0xbca1b718	-0.019740626
85	0xbb10810d	-0.0022049577
86	0x3c8078c7	0.015682591
87	0x3c2bc93d	0.010484991
88	0xbcfeba22	-0.031094614
89	0xbcad6b78	-0.02116941
90	0x3d1ce234	0.03830166
91	0x3c432677	0.011911026
92	0xbcc5c147	-0.024140013
93	0x3c4d21d7	0.012520275
94	0xbd84bd34	-0.064814
95	0x3d25a670	0.04044193
96	0xbd2395d6	-0.039937817
97	0x3cca129d	0.024667079
98	0xbe7926be	-0.24331185
99	0xbe0080eb	-0.12549178
100	0xbe018aeb	-0.12650649
101	0xbca5be9f	-0.020232497
102	0x3db9289a	0.09040947
103	0xbc1c7ca3	-0.0095512
104	0x3d93aa0d	0.07210169
105	0xbe46966b	-0.19393317
106	0x3df38848	0.11891228
107	0xbe3cf228	-0.1845175
108	0x3e53bfd6	0.20678648
109	0x3d5e2f67	0.054244425
110	0xbc7e0967	-0.015505171
111	0xbe367e6c	-0.17821664
112	0xbe82d8c1	-0.25555995
113	0x3ce299c7	0.027661217
114	0xbe132468	-0.14369357
115	0x3e1e34ef	0.1544988
116	0xbcda42d2	-0.02664319
117	0x3cba415c	0.022736244
118	0x3d1fd20a	0.03901867
119	0xbc8945c9	-0.016756909
120	0xbb11ee06	-0.0022267117
121	0x3d16cc6a	0.03681604
122	0xbe0b494a	-0.13602176
123	0xbc6593c3	-0.01401228
124	0xbcc03c37	-0.023466213
125	0xbdcd3f25	-0.100218095
126	0x3dbc40bd	0.09192035
127	0xbdb9549d	-0.09049342
128	0x3ad6d2ac	0.0016389689
129	0xbd7c0fd1	-0.06153852
130	0x3d2aa47c	0.04166077
131	0xb8896ed8	-6.553315e-05
132	0xbc7d063f	-0.015443384
133	0xbd530293	-0.051516127
134	0xbca3f986	-0.020016443
135	0xbd1babfd	-0.038005818
136	0x3cab00a2	0.020874325
137	0x3d3628dd	0.044472564
138	0xbcaf4a3c	-0.021397702
139	0x3d1cfc6b	0.038326662
140	0xbc6789f7	-0.0141320145
141	0xbd075bd5	-0.033046562
142	0x3cdb8447	0.026796473
143	0x3c2837ac	0.010267179
144	0x3c75a3fa	0.014992708
145	0x3b552f20	0.003252931
146	0x3dd88866	0.10572891
147	0xbd05f9d9	-0.032708976
148	0xbbeb2da2	-0.0071770707
149	0x3b8a1889	0.0042143506
150	0x3bb4edbf	0.0055215056
151	0x3c051ef2	0.008125054
152	0xbd30f481	-0.043201927
153	0xbcd0f0ac	-0.025505386
154	0x3c25fb30	0.010130689
155	0xbc1b00b8	-0.009460621
156	0xbcd81909	-0.026379125
157	0xbc5e7784	-0.013578299
158	0xbd3d5e67	-0.046232607
159	0x3d893628	0.066997826
160	0xbbc03a67	-0.005866337
161	0xbdb50fe7	-0.08840924
162	0x3d657b62	0.05602587
163	0x3d9e2cae	0.07723366
164	0x3cfd668b	0.030932685
165	0xb93d1266	-0.00018031299
166	0x3d14cd21	0.03632844
167	0xbd46e0f3	-0.048554372
168	0x3cb785ac	0.022402607
169	0x3d89d60c	0.06730279
170	0xbca931ec	-0.020653687
171	0x3cc3b51c	0.02389007
172	0xbcaf7d65	-0.021422097
173	0x3cca40d6	0.02468912
174	0x3ade5b85	0.0016964531
175	0x3cd070d1	0.02544442
176	0x3d3bb926	0.04583087
177	0x3b439c10	0.002984766
178	0x3dcbc579	0.09949774
179	0xbc28455e	-0.010270445
180	0xbbb59dfb	-0.0055425144
181	0xbcddc22d	-0.02707013
182	0xbc02c62e	-0.00798182
183	0xbca79311	-0.020455869
184	0xbd77f9ab	-0.060540836
185	0xbd316d2a	-0.043316998
186	0xbcae5c8e	-0.021284368
187	0xbc02d03c	-0.007984217
188	0xbcb09b0d	-0.021558309
189	0x3d5719e3	0.052514922
190	0xbc903403	-0.017602926
191	0x3da0d968	0.07853967
192	0x3c71dc92	0.014762061
193	0xbbad841d	-0.00529529
194	0xbcc8e7ce	-0.024524596
195	0xbb89aea0	-0.004201725
196	0xbd23b184	-0.039964214
197	0xbcb61db4	-0.02223096
198	0x3c82bb79	0.015958535
199	0x3b77edca	0.0037830942
200	0x3c7d1339	0.015446478
201	0xbc8e30ad	-0.017357195
202	0x3cfa6b17	0.030568643
203	0xbc8bc1a8	-0.017060116
204	0x3d15ef05	0.0366049
205	0x3c430521	0.011903078
206	0xbbe984d4	-0.00712643
207	0xbbc1d253	-0.005914965
208	0xbd14b750	-0.036307633
209	0x3c29a43c	0.010354098
210	0xbd5ab25d	-0.053392757
211	0x3cd997c4	0.026561625
212	0xbc49c650	-0.012315348
213	0x3c58955f	0.013219207
214	0x3c9cddbf	0.019148706
215	0x3ca0e6b0	0.01964125
216	0x3ba14bb7	0.004922356
217	0xbc065fd5	-0.008201559
218	0xbbf2a4fd	-0.007404922
219	0x3c39cdef	0.011340602
220	0xbbf0c633	-0.007347846
221	0xbca0c973	-0.019627308
222	0x3c29df2c	0.01036815
223	0xbd095e17	-0.033536997
224	0x3c92d85a	0.01792543
225	0xbd508184	-0.050904766
226	0xbdab81cf	-0.083743684
227	0xbdf7e816	-0.12104814
228	0xbce7bf94	-0.028289594
229	0x3dcaa854	0.09895387
230	0x3dc3421c	0.09534094
231	0xbc78cb0b	-0.015185128
232	0x3d153288	0.036425143
233	0xbd1c0bab	-0.038097065
234	0x3e5de336	0.21668705
235	0x3d8ddb66	0.069266126
236	0xbccc15a8	-0.02491267
237	0x3d3cf662	0.046133406
238	0xbd055617	-0.032552805
239	0xbde924ff	-0.113840096
240	0xbcfda80a	-0.030963916
241	0x3cd4fc3c	0.025999181
242	0xbd4bf56f	-0.04979461
243	0x3e20f8aa	0.15719858
244	0x3d966e2a	0.07345231
245	0x3d033edb	0.032042366
246	0x3bd9d94c	0.0066482183
247	0x3d0eeb5c	0.034892425
248	0x3e016953	0.12637834
249	0x3dd59198	0.104281604
250	0xbd225ee4	-0.039641276
251	0x3d5db4b6	0.054127418
252	0xbd6f4c51	-0.05842239
253	0xbd897600	-0.0671196
254	0xbbbdb1d6	-0.005789022
255	0xbc5ef872	-0.013609039

residuals.1.bias f4 [32]
0	0xbce35cc6	-0.027754199
1	0x3d5274b2	0.05138082
2	0xbda0e032	-0.07855262
3	0x3e36412a	0.17798296
4	0xbd41e2c3	-0.047335397
5	0xbd75d25a	-0.06001506
6	0xbc752e6f	-0.014964684
7	0x3e151c67	0.14561616
8	0xbdb99d36	-0.09063189
9	0xbcf65a7a	-0.03007244
10	0xbd95a572	-0.07306947
11	0x3e138619	0.14406623
12	0xbc371e74	-0.011176694
13	0xbdb8e73a	-0.09028478
14	0xbe3c9c46	-0.18418989
15	0x3cd6ed0f	0.026236085
16	0xbdf6ffe6	-0.120605275
17	0xbd1b32cf	-0.03789025
18	0xbd9bd047	-0.07608085
19	0xbe14d41f	-0.14534043
20	0xbdadf76d	-0.08494458
21	0x3d839793	0.06425395
22	0xbd8f16b5	-0.06986753
23	0x3e39c7ea	0.18142667
24	0x3e025e31	0.12731244
25	0x3e1e9807	0.15487681
26	0xbd91b93a	-0.07115407
27	0xbca6fc1b	-0.020383885
28	0x3df80876	0.12110989
29	0x3c9c5393	0.01908282
30	0xbdf5afdb	-0.119964324
31	0x3e174749	0.14773287

mlp.0.weight f4 [16, 32]
0	0xbe2ec05b	-0.17065565
1	0xbd899b9c	-0.06719133
2	0xbd7db7f8	-0.061943024
3	0x3e88a4bf	0.2668819
4	0x3c39f528	0.011349954
5	0xbdc04951	-0.09388984
6	0x3db7c417	0.08972948
7	0x3e60d77c	0.21957201
8	0x3d581bf6	0.05276104
9	0x3bf95c6c	0.0076098945
10	0x3d923736	0.07139437
11	0x3e9373f1	0.28799394
12	0xbc6f71ff	-0.014614581
13	0x3d8fd918	0.07023829
14	0xbd2feabc	-0.04294847
15	0x3dcb0023	0.099121355
16	0x3d87117f	0.06595134
17	0x3c25aade	0.010111539
18	0x3ce9286d	0.02846166
19	0xbd151d78	-0.036405057
20	0xbcc56ddb	-0.024100235
21	0x3e70d203	0.23517613
22	0x3d6da5ac	0.058019325
23	0x3e4093d1	0.18806387
24	0x3e61a15a	0.22034207
25	0xbc51e258	-0.012810312
26	0xbde8d107	-0.11367994
27	0xbdcb38d3	-0.09922948
28	0xbcf889c6	-0.030339133
29	0xbd5c1bc9	-0.053737435
30	0xbe00c1e9	-0.12573971
31	0x3d1bb464	0.03801383
32	0xbd4a74e8	-0.049427897
33	0xbe06f883	-0.13180737
34	0x3ce56a8c	0.028004907
35	0x3e47ca78	0.1951083
36	0x3d99a91c	0.07502958
37	0x3c1c83de	0.009552924
38	0xbb31c66b	-0.0027126323
39	0x3e7cd49b	0.24690478
40	0xbd4387c9	-0.047736917
41	0x3cdd6b21	0.027028622
42	0xbc92973d	-0.017894382
43	0x3e3805a3	0.179709
44	0x3aa743da	0.001276131
45	0x3caeb57f	0.021326778
46	0x3c5bf96a	0.013426164
47	0x3d972c52	0.073815
48	0xbd8aa295	-0.06769291
49	0xbcc37edf	-0.023864208
50	0xbd870482	-0.06592657
51	0xbd8c7e11	-0.06859983
52	0xbcfe22ed	-0.031022513
53	0x3d7e65ee	0.062108926
54	0xbcfc53fc	-0.030801766
55	0x3e0d01b9	0.13770188
56	0x3e12b517	0.14326893
57	0x3a7fc4e0	0.00097568147
58	0x3ce16b24	0.027516909
59	0xbda0259c	-0.078196734
60	0x3d06c516	0.0329028
61	0xbdf74cd3	-0.120752
62	0xbdf9c662	-0.12196042
63	0x3c700598	0.014649771
64	0xbbbea75e	-0.0058182916
65	0x3d8eb96d	0.06968961
66	0x3a4d09f8	0.0007821615
67	0xbca49864	-0.020092197
68	0xbc5efd98	-0.013610266
69	0x3a8f500e	0.0010933892
70	0xbc65646a	-0.014000991
71	0xbc998f49	-0.018745081
72	0x3cb5d87a	0.02219795
73	0xbc85e6ed	-0.016345466
74	0x3cbcdd46	0.02305473
75	0xbcb62ee5	-0.022239158
76	0x3cb7d473	0.02244017
77	0x3d6d883a	0.057991244
78	0x3d8a78f1	0.06761349
79	0xbce9424b	-0.028473994
80	0x3c1f0aec	0.009707194
81	0x3d84f8ce	0.06492768
82	0x3d862ea7	0.06551867
83	0x3d8ab701	0.067731865
84	0x3d26cf28	0.040724903
85	0x3b9272a0	0.004469231
86	0xbcc64e8a	-0.024207372
87	0xbc06b506	-0.00822187
88	0x39d7629a	0.0004108146
89	0xbd81b24e	-0.06332837
90	0x3d2341dd	0.039857734
91	0xbd51b44a	-0.051197328
92	0xbd29bce9	-0.041439924
93	0xbb4ddc0d	-0.0031411678
94	0x3c2cf218	0.0105557665
95	0xbc41e64e	-0.011834694
96	0x3be06b4c	0.0068487283
97	0x3dff7419	0.12473316
98	0xbddf6b00	-0.109090805
99	0x3e0c1060	0.13678122
100	0xbddd3e87	-0.10802942
101	0x3cbfcaff	0.023412226
102	0x3deb1b82	0.11479856
103	0xbbcfb729	-0.006338973
104	0xbdd21648	-0.10258156
105	0x3b862706	0.0040940074
106	0xbcd815ee	-0.026377644
107	0x3e3de90a	0.18545929
108	0xbb5f6159	-0.0034085123
109	0xbe17a536	-0.14809117
110	0x3aaa5ea5	0.0012998177
111	0xbd8df894	-0.06932178
112	0xbb33089c	-0.0027318364
113	0x3d3df695	0.046377737
114	0xbcddec19	-0.02709012
115	0xbd2c21db	-0.042024475
116	0xbe129404	-0.14314276
117	0x3ce4c040	0.027923703
118	0xbe0f9a72	-0.1402376
119	0x3de9fae2	0.11424805
120	0x3e07d2c5	0.13263996
121	0x3e11bef8	0.14233005
122	0xbd578bf1	-0.052623693
123	0xbd68956c	-0.056783125
124	0x3dae9228	0.08523971
125	0xbd9f2fa4	-0.077727586
126	0x3d5bf9e1	0.0537051
127	0x3daa9a87	0.08330255
128	0xbbcb7075	-0.0062084743
129	0xbbca926a	-0.0061820047
130	0xbc901dd8	-0.017592356
131	0x3a7ef4d9	0.0009725816
132	0xbcd4223d	-0.025895232
133	0x3c542fd5	0.012950857
134	0x3b4b4ecf	0.0031022315
135	0xbc8fe9fd	-0.017567629
136	0xbc5240f9	-0.0128328735
137	0xbc0ce9ed	-0.008600694
138	0x3c237784	0.009977225
139	0x3a866c41	0.0010255651
140	0x3d1e3822	0.03862775
141	0x3d8b3f10	0.067991376
142	0x3d16c879	0.03681228
143	0x3ac78e00	0.0015224814
144	0x3cf9fef9	0.030517088
145	0x3d2309df	0.039804336
146	0x3d928eb9	0.071561284
147	0x3d961831	0.07328833
148	0x3d107205	0.035264987
149	0xbb79137f	-0.0038006005
150	0xbc15bd61	-0.00913939
151	0xbcab9ddc	-0.020949297
152	0xbc349085	-0.011020784
153	0xbdab6aac	-0.083699554
154	0x3cbc31db	0.022972992
155	0x3d696ce2	0.056988604
156	0xbd816688	-0.063183844
157	0x3d57bfd3	0.052673172
158	0x3c3cb1a3	0.011516961
159	0xbc459589	-0.012059578
160	0x3c75d20c	0.015003692
161	0xbd6b43dd	-0.057437766
162	0x3cd4a3e1	0.02595705
163	0xbd8b7606	-0.068096206
164	0xbd8d5ebf	-0.06902837
165	0x3d99546b	0.074868046
166	0x3d637406	0.05553057
167	0xbd326e6b	-0.043562334
168	0xbd576489	-0.052586112
169	0xbcc88d6d	-0.0244815
170	0x3e129f3e	0.14318559
171	0x3b97d7b6	0.004633869
172	0x3e0a7520	0.13521242
173	0x3dacc607	0.08436208
174	0x3dfdd412	0.12393965
175	0x3d76f889	0.060295615
176	0x3e03b48f	0.12861846
177	0xbb906b6a	-0.004407336
178	0x3e2e8461	0.17042686
179	0x3c3839a3	0.01124421
180	0x3d24dc72	0.040249296
181	0xbdec34e3	-0.11533525
182	0xbd8243f2	-0.06360616
183	0xbd51b708	-0.051199943
184	0xbdd96e52	-0.10616745
185	0xbce5c2c2	-0.02804697
186	0x3e060ab6	0.13090023
187	0x3e1c9a12	0.15293148
188	0xbd5b3872	-0.053520627
189	0x3e0e1250	0.13874173
190	0xbd844aa2	-0.064595476
191	0xbd904273	-0.07043924
192	0xbdd90824	-0.10597256
193	0x3cc32fda	0.023826528
194	0x3d4da501	0.050206188
195	0x3da6bb95	0.08141247
196	0xbd347c87	-0.04406407
197	0x3d9437e1	0.072372206
198	0x3d7edfb2	0.06222505
199	0x3d7eccb8	0.062206954
200	0xbe0174ff	-0.12642287
201	0x3c2a1169	0.0103801275
202	0xbe2352ac	-0.15949506
203	0x3d6a1d8a	0.057157077
204	0xbd68e423	-0.056858193
205	0x3c1d9c3f	0.0096197715
206	0xbd174d07	-0.036938693
207	0xbd61bf32	-0.05511398
208	0xbdd310de	-0.103059515
209	0xbc021d77	-0.007941595
210	0xbd42885a	-0.047493316
211	0x3c561606	0.013066774
212	0xbd512c00	-0.051067352
213	0x3ddee59e	0.1088364
214	0xbd9b5457	-0.07584446
215	0x3dd9f6fb	0.10642811
216	0xbd013fb3	-0.03155489
217	0x3d9e9fd1	0.07745326
218	0x3bd5d1f4	0.0065252725
219	0xbcc4f882	-0.024044279
220	0xbcc1b20a	-0.023644466
221	0xbcc5dafd	-0.024152273
222	0xbd5237ad	-0.051322628
223	0xbd6eb64f	-0.05827933
224	0x3da5287f	0.08064365
225	0xbca6a772	-0.020343516
226	0xbda2cc97	-0.07949179
227	0x3d34de94	0.04415758
228	0xbb6216f0	-0.0034498535
229	0xbdbb4ff8	-0.09146112
230	0x3d76963c	0.06020187
231	0xbd265b74	-0.04061456
232	0x3d11ad9d	0.03556596
233	0xbe104233	-0.14087753
234	0x3d469908	0.048485786
235	0xbdde3f25	-0.108518876
236	0x3e11111c	0.14166683
237	0xbb7ad712	-0.0038275165
238	0x3dea6407	0.1144486
239	0xbdd8ecea	-0.10592063
240	0xbd88af21	-0.06674028
241	0x3e014760	0.12624884
242	0x3da7e2b6	0.081975386
243	0xbc864f04	-0.0163951
244	0xbd7ab6fb	-0.06120966
245	0xbe0ba9cd	-0.13638993
246	0x3d95e096	0.07318227
247	0xbc761048	-0.01501853
248	0xbcda5586	-0.026652109
249	0xbe424f62	-0.18975595
250	0x3d284d5d	0.041089404
251	0xbdc03547	-0.09385162
252	0xba9ddd90	-0.001204418
253	0x3e15edb0	0.14641452
254	0x3def543b	0.116859876
255	0xbdc55f29	-0.09637291

mlp.0.bias f4 [16]
0	0x3e231b5a	0.15928403
1	0x3de9f6f6	0.11424057
2	0xbdb8a1f5	-0.09015266
3	0x3dd043eb	0.10169204
4	0xbdd4c4b7	-0.10389083
5	0xbe11057d	-0.1416225
6	0x3e13369b	0.14376299
7	0xbd8339aa	-0.06407483
8	0xbe07f2f4	-0.13276273
9	0xbe1807f5	-0.14846785
10	0x3d5f1c7c	0.054470524
11	0xbe170363	-0.14747386
12	0x3e169d9e	0.14708564
13	0xbe2d0e0d	-0.16899891
14	0xbc4be866	-0.012445545
15	0x3d5d3233	0.05400295

mlp.1.weight f4 [1, 16]
0	0xbeb70250	-0.35743952
1	0xbe370bcf	-0.17875598
2	0x3d77df6f	0.060515817
3	0xbe60b299	-0.2194313
4	0x3d8597ca	0.06523092
5	0x3e37c7a8	0.17947257
6	0xbdfde83e	-0.12397812
7	0x3e3c4aff	0.18387984
8	0x3e600e91	0.21880557
9	0x3df92be5	0.12166575
10	0xbe81b1d1	-0.25330976
11	0x3e880fe6	0.2657463
12	0xbe454ff6	-0.19268784
13	0x3e855685	0.26042572
14	0x3dff00e3	0.12451341
15	0xbe610a70	-0.21976638
