best_model_spl.pt (torch, 18637 bytes, 15 tensors)

gat_layers.0.att_src f4 [1, 4, 8]
0	0x3e44b426	0.19209346
1	0x3d6c2495	0.057652075
2	0xbe76fb32	-0.24119261
3	0xbc84e3b2	-0.016221855
4	0xbd404f82	-0.046950825
5	0x3dcb7d2a	0.099359825
6	0xbe20d5be	-0.15706536
7	0x3cd8d91a	0.02647071
8	0x3db879fe	0.09007643
9	0xbe9a71af	-0.3016486
10	0x3d33faf9	0.043940518
11	0xbe6e3bb3	-0.23264961
12	0x3d178c91	0.03699929
13	0x3d22b247	0.0397208
14	0xbd6e3c53	-0.058163
15	0xbe84eb3b	-0.25960717
16	0xbd2e5ac3	-0.042567026
17	0x3cc76dd9	0.024344372
18	0x3d1e3585	0.03862526
19	0xbddd453e	-0.108042225
20	0xbc28d6ad	-0.010305089
21	0xbe5c594f	-0.21518444
22	0x3c517740	0.012784779
23	0x3e48a817	0.19595371
24	0x3db1d7e8	0.08683759
25	0x3e918852	0.28424317
26	0x3d4e6e72	0.050398298
27	0x3e812322	0.25222117
28	0x3d219226	0.03944602
29	0xbe116407	-0.14198314
30	0x3d31d7ae	0.04341858
31	0x3daa4c15	0.08315293

gat_layers.0.att_dst f4 [1, 4, 8]
0	0xbdeebf1d	-0.11657546
1	0xbdebd83a	-0.11515851
2	0x3c0af563	0.008481356
3	0xbdbd9f9f	-0.09258961
4	0x3bb8e6a5	0.0056427293
5	0x3da72d3c	0.08162925
6	0x3dbb6e34	0.09151879
7	0xbd584657	-0.052801456
8	0xbd4972f5	-0.049181897
9	0x3e9569a6	0.29182166
10	0xbd18d180	-0.03730917
11	0xbc7354d1	-0.014851765
12	0x3daf12c1	0.08548499
13	0x3ddeeeb3	0.10885372
14	0xbd9738d1	-0.07383884
15	0x3dccbdd3	0.099971436
16	0x3d5c7351	0.05382091
17	0xbdfae018	-0.12249774
18	0xbc48bd16	-0.012252113
19	0xbd54f6b1	-0.051993076
20	0xbdc6ee7d	-0.09713457
21	0x3da85642	0.08219577
22	0x3dab9ef1	0.08379925
23	0xbb961aaa	-0.0045808153
24	0xbd3fd0b4	-0.046829894
25	0xbeaea1f3	-0.34107932
26	0xbcec4a7a	-0.028844107
27	0xbe0d277b	-0.13784592
28	0x3c6cb62a	0.014447728
29	0xbcd05881	-0.025432827
30	0xbc6c9b32	-0.014441298
31	0xbd55b0ec	-0.05217068

gat_layers.0.bias f4 [32]
0	0x3cacce9e	0.021094617
1	0xbe97d02e	-0.29651016
2	0x3e699e47	0.22814284
3	0x3e211456	0.15730414
4	0xbe0d37a8	-0.13790762
5	0x3da1062b	0.078625046
6	0x3e520cf6	0.20512757
7	0xbe9642e3	-0.29347906
8	0xbd92964a	-0.071575716
9	0xbdb235b4	-0.08701649
10	0xbe546a8e	-0.20743772
11	0x3eb0af0a	0.34508544
12	0x3e07a60e	0.13246939
13	0x3e276dd0	0.16350484
14	0xbe532a8f	-0.20621704
15	0x3e7b5c0c	0.24546832
16	0x3e23177a	0.15926924
17	0xbe6d45fb	-0.23171227
18	0xbcf53609	-0.029932993
19	0x3e708642	0.23488715
20	0xbe5c0748	-0.21487153
21	0x3e5b1458	0.2139448
22	0x3e55e27f	0.20887183
23	0x3e145667	0.14486085
24	0xbea796b3	-0.32732162
25	0x3c7a8b81	0.015292049
26	0xbe88a6d3	-0.26689777
27	0xbe9c85cb	-0.30570826
28	0x3e58d559	0.21175136
29	0x3e0aa238	0.13538444
30	0x3e1a3132	0.15057829
31	0x3e59483a	0.21218958

gat_layers.0.lin.weight f4 [32, 4]
0	0x3d8dfe59	0.069332786
1	0xbe2e75a1	-0.1703706
2	0x3a9bd719	0.0011889666
3	0x3ba103ef	0.004913799
4	0xbdc194dc	-0.09452221
5	0xbe0b0337	-0.13575445
6	0x3c17cb48	0.009264775
7	0x3bf967a2	0.007611231
8	0xbe8f4040	-0.27978706
9	0x3e77b3e5	0.24189718
10	0xbbd7057e	-0.006561934
11	0x3a5ed70b	0.0008500672
12	0xbdaa9c1b	-0.08330556
13	0xbdf3119a	-0.118685916
14	0xbc6d80c0	-0.014496028
15	0xbbc3e017	-0.0059776413
16	0xbd51dbb1	-0.051234905
17	0x3cd0f40b	0.025506994
18	0xb9ab6899	-0.00032693593
19	0xbb8618bf	-0.0040923054
20	0x3df50408	0.119636595
21	0x3d84d294	0.06485477
22	0xba20bd81	-0.0006131754
23	0xbaf615d2	-0.0018774814
24	0xbd99183f	-0.07475328
25	0x3e542759	0.20718135
26	0xbc27f6e4	-0.010251734
27	0xbb8da293	-0.004322359
28	0xbcbfb944	-0.023403771
29	0xbd7f3f08	-0.06231597
30	0x3cc44ea7	0.023963286
31	0x3c4ede66	0.012626266
32	0xbdb0b78b	-0.08628758
33	0x3d76368c	0.060110614
34	0x3aa8e607	0.0012885936
35	0x3ba37906	0.0049887924
36	0x3e1fe40c	0.15614337
37	0x3e229d7d	0.1588039
38	0x3ca20ab2	0.01978049
39	0x3c000543	0.0078137545
40	0x3e661650	0.22469449
41	0xbe93a4df	-0.28836724
42	0xbbbcd093	-0.0057621687
43	0xbaefe989	-0.0018303852
44	0xbe263973	-0.16232853
45	0x3e4e7332	0.20161131
46	0xbcb6afb7	-0.022300584
47	0xbc0912ff	-0.008366345
48	0x3e07678d	0.13223095
49	0x3e4ed135	0.20196994
50	0x3c114378	0.008866183
51	0x3bfa3160	0.0076352805
52	0x3e781a58	0.242288
53	0xbe0fee08	-0.14055645
54	0xbc729837	-0.014806799
55	0xbc81dda2	-0.015852753
56	0xbdc9b067	-0.09848099
57	0xbd40bfac	-0.047057793
58	0x39778358	0.00023604685
59	0x3bb9cb10	0.005669959
60	0xbddb3d53	-0.10705056
61	0x3e749ce7	0.23887978
62	0xba632eac	-0.00086663174
63	0xba45f9d6	-0.0007552182
64	0xbcdb1ba9	-0.026746588
65	0x3e02f41e	0.12788436
66	0xbc274fc9	-0.010211893
67	0xbbb2493b	-0.0054408587
68	0x3b6aa96a	0.0035806545
69	0xbeab02c4	-0.33400548
70	0x3ab2b9bc	0.0013635675
71	0x3ab5b283	0.0013862405
72	0x3cefa858	0.029255077
73	0xbd46accc	-0.048504636
74	0xb98e1393	-0.00027098935
75	0x3a1e2716	0.0006033046
76	0xbe040716	-0.12893328
77	0xbc8d6024	-0.017257757
78	0xbcabc742	-0.020969037
79	0xbc6f6553	-0.01461156
80	0xbdeff211	-0.117160924
81	0xbe428190	-0.18994737
82	0x3b3d5e8a	0.002889546
83	0x3a0f006e	0.0005455081
84	0xbdc0ad16	-0.094080135
85	0x3eb79600	0.35856628
86	0x3bc7e71b	0.006100548
87	0x3a3c1be5	0.00071757875
88	0x3d873cc9	0.06603391
89	0x3e026eda	0.12737599
90	0x3b1abfbb	0.0023612815
91	0x3b83e7df	0.004025444
92	0x3e59d9da	0.2127451
93	0xbe460b96	-0.19340357
94	0xbbbe5aaf	-0.00580915
95	0xbb33d4a4	-0.0027439976
96	0x3cc8a8cd	0.024494553
97	0xbecb2ba3	-0.3968173
98	0x3c348358	0.011017643
99	0x3c5c8ba2	0.013461025
100	0xbd859192	-0.06521906
101	0xbef7d6e9	-0.4840615
102	0xbcd3ff0b	-0.02587845
103	0xbb922623	-0.0044601127
104	0x3c8626bb	0.01637589
105	0xbd4c5a49	-0.04989079
106	0x3c8e2431	0.017351242
107	0x3bff7c29	0.0077967835
108	0x3da2dcfe	0.07952307
109	0xbe856970	-0.26057005
110	0x3bd121d0	0.0063822046
111	0x3bc030dc	0.0058651995
112	0x3d01cb93	0.031688284
113	0xbc727801	-0.014799119
114	0xb9d78106	-0.00041104126
115	0x3a199870	0.0005859202
116	0xbde8fecd	-0.113767244
117	0x3da91a1b	0.08256932
118	0xbbb925a7	-0.0056502405
119	0xb9962656	-0.00028638792
120	0x3cc950f7	0.02457474
121	0xbc8aa0cc	-0.016922377
122	0xbb7bd39b	-0.0038425687
123	0xbad1c958	-0.001600544
124	0x3c90cc0b	0.01767542
125	0xbda6160d	-0.081096746
126	0xbc809374	-0.015695311
127	0xbc0ab562	-0.008466097

gat_layers.1.att_src f4 [1, 4, 8]
0	0xbe592975	-0.21207221
1	0xbde89dd1	-0.11358226
2	0xbeaa1060	-0.33215618
3	0x3e100db9	0.14067735
4	0x3e21fef9	0.1581992
5	0xbde6c990	-0.11268914
6	0x3da21ba3	0.079154275
7	0x3e8b4efd	0.272087
8	0x3ac2d1d0	0.0014863554
9	0x3d296758	0.041358322
10	0xbc7a7296	-0.0152861085
11	0x3c9e6b6a	0.019338328
12	0x3d39fcb0	0.045406997
13	0xbd52b3b1	-0.0514409
14	0x3da4395f	0.08018755
15	0xbca474b0	-0.020075172
16	0x3d175e38	0.03695509
17	0xbd987b62	-0.074454084
18	0xbdadb6c5	-0.08482126
19	0x3c9b2d1c	0.018942408
20	0x3dbd8bac	0.09255156
21	0x3d9d2fe5	0.07675151
22	0x3e053f0c	0.13012332
23	0x3d519b97	0.051173773
24	0x3e2b3e0c	0.16722888
25	0x3c8688e3	0.016422695
26	0xbd951283	-0.072789215
27	0x3dae6d47	0.08516937
28	0x3d6ac51a	0.057316877
29	0x3e86158a	0.26188308
30	0x3d1725ad	0.036901165
31	0xbdfc5dc1	-0.1232257

gat_layers.1.att_dst f4 [1, 4, 8]
0	0xba71aca6	-0.0009219147
1	0x3cccd6d2	0.025004778
2	0x3dc8c9ee	0.0980414
3	0xbc51e4a4	-0.01281086
4	0xbdc047be	-0.09388684
5	0x3de1cf7c	0.11025903
6	0xbd3afe5e	-0.04565274
7	0xbd4215a6	-0.047383927
8	0x3cc0a82f	0.023517696
9	0xbc609ae8	-0.0137088075
10	0x3cd41c96	0.025892537
11	0xbc38f8f9	-0.011289828
12	0xbc39d867	-0.011343098
13	0xbc8e1437	-0.017343624
14	0xbce4def5	-0.027938345
15	0xb99faacf	-0.00030454106
16	0xbca190bc	-0.019722335
17	0x3c6cd82d	0.014455837
18	0xb9e8b896	-0.00044388016
19	0x3cb8def7	0.022567255
20	0xbbb26279	-0.0054438678
21	0xbbbfdf20	-0.005855456
22	0xbd0b6a9c	-0.034037217
23	0xbc8065ff	-0.015673636
24	0xbd8153b7	-0.063147955
25	0xbd7b511c	-0.06135665
26	0x3d1165c2	0.035497434
27	0xbcb863d9	-0.022508549
28	0xbca12bce	-0.019674208
29	0x3cb7b2ac	0.022424065
30	0xbc901fb2	-0.017593239
31	0xbcf15626	-0.029460024

gat_layers.1.bias f4 [32]
0	0x3e069015	0.131409
1	0x3ddba100	0.10724068
2	0x3d002ae7	0.031290915
3	0xbca1c28f	-0.019746093
4	0xbd89b4cd	-0.06723938
5	0x3c219a54	0.009863455
6	0x3d7ee4e3	0.062230002
7	0x3db5bac5	0.08873514
8	0x3dcef55c	0.10105392
9	0xbd2ba1cb	-0.041902345
10	0xbc8d8c9f	-0.017278967
11	0xbd91a968	-0.0711239
12	0xbdcc5265	-0.09976653
13	0x3d9289d5	0.071551956
14	0xbdc0d49e	-0.094155535
15	0x3dbc1897	0.09184378
16	0xbd8d0aed	-0.068868496
17	0x3d455889	0.048180137
18	0x3db9f915	0.09080712
19	0xbd589e18	-0.052885145
20	0x3d710ebc	0.058851942
21	0xbde0ef1f	-0.10983109
22	0xbd4cfa4f	-0.0500434
23	0xbd662397	-0.056186285
24	0xbdbe31e2	-0.09286858
25	0x3d9fb4fa	0.077981904
26	0x3d7709b6	0.060311995
27	0xbd54bf6b	-0.051940363
28	0xbcc0626f	-0.023484437
29	0xbd6525f3	-0.055944394
30	0xbd2f1e1e	-0.04275333
31	0x3d19203f	0.037384268

gat_layers.1.lin.weight f4 [32, 32]
0	0xbb07327e	-0.002062946
1	0x3cfab6cf	0.030604748
2	0x3d480a27	0.048837807
3	0xba3bb935	-0.0007161082
4	0xbd88549d	-0.06656764
5	0x3dbf5895	0.093430676
6	0x3b074a1f	0.0020643545
7	0x3d49a7a0	0.049232125
8	0x3d6dc191	0.058045927
9	0x3dc0e293	0.094182156
10	0x3d204d03	0.039135944
11	0x3ca37bd3	0.019956505
12	0x3d8cdc20	0.06877923
13	0xbdbf864c	-0.09351787
14	0xbd6cf36a	-0.057849325
15	0x3dadd72d	0.08488307
16	0x3d903883	0.07042029
17	0x3b063b2f	0.0020482054
18	0xbb2dd467	-0.0026524307
19	0xbbf67e63	-0.0075223907
20	0x3c1c84d4	0.009553153
21	0x3df66e78	0.12032789
22	0xbc9e7bc1	-0.01934612
23	0x3d085b43	0.03329016
24	0x3d054482	0.032536037
25	0xbcf505e3	-0.029910034
26	0xbd61673b	-0.05503009
27	0x3c6c72ca	0.014431665
28	0xbd88023a	-0.0664105
29	0x3d0799e8	0.03310576
30	0x3d3c494d	0.045968343
31	0xbd6399f0	-0.055566728
32	0xbd871c12	-0.06597151
33	0x3c897d47	0.01678337
34	0xbc368100	-0.011139154
35	0xbcf83bbd	-0.030301923
36	0xbd4cf655	-0.050039608
37	0x3cf06338	0.029344186
38	0xbd01faf2	-0.03173346
39	0x3cb4084b	0.02197661
40	0x3d495d4e	0.049161248
41	0xbc0469c3	-0.008081856
42	0x3d9f4536	0.07776873
43	0xbceb46dc	-0.028720312
44	0x3d2ab5eb	0.041677397
45	0xbccf4a22	-0.025303904
46	0xbca74e4c	-0.020423077
47	0x3d1d73ab	0.038440388
48	0x3c0e3078	0.008678548
49	0x3d8fc440	0.070198536
50	0x3b47363a	0.0030397312
51	0xbc807651	-0.015681418
52	0x3ddd73b2	0.10813083
53	0x3d695c36	0.056972705
54	0xbcf99853	-0.030468142
55	0x3cab8114	0.020935573
56	0x3db6ac4e	0.08919583
57	0xbc4a9dfb	-0.012366767
58	0x3db42b05	0.08797268
59	0x3d090a5c	0.033457145
60	0xbd875f61	-0.06609989
61	0x3b8a2c67	0.004216719
62	0x3c35ca0f	0.011095538
63	0xbd1994f5	-0.037495572
64	0x3ce95403	0.028482443
65	0x3dbf4085	0.09338478
66	0xbc370c0a	-0.011172304
67	0xbd893987	-0.067004256
68	0xbd706d40	-0.05869794
69	0x3dd80754	0.10548273
70	0xbd46bf9c	-0.048522577
71	0x3c852b67	0.016256047
72	0x3d5af370	0.053454816
73	0x3dc52823	0.09626796
74	0x3d9b986e	0.07597433
75	0xbd97d31b	-0.07413312
76	0x3d5de5d6	0.054174267
77	0xbddc3ccb	-0.10753783
78	0x3d92a55c	0.07160446
79	0x3caf6057	0.021408243
80	0x3cfd1e23	0.03089816
81	0x3d1ecb3e	0.038768046
82	0x3c0b4191	0.008499519
83	0xbd23a13f	-0.039948698
84	0x3c4fdf73	0.012687552
85	0x3d44f923	0.048089158
86	0xbdfb05b6	-0.12256949
87	0x3d4b7b94	0.0496784
88	0x3e15602d	0.1458747
89	0x3d25f71c	0.040518865
90	0x3d2209a2	0.039559968
91	0x3d48ac70	0.048992574
92	0xbdc810ca	-0.09768827
93	0xbbcae284	-0.0061915535
94	0x3cf71747	0.030162467
95	0xbd88f654	-0.06687608
96	0xbc684493	-0.014176506
97	0xbc9340ee	-0.017975297
98	0xbc8443bb	-0.016145578
99	0x3c20f172	0.00982319
100	0xbb836d8c	-0.0040108617
101	0xbd1de30c	-0.038546607
102	0x3cff37f0	0.031154603
103	0xbd1cfec6	-0.03832891
104	0xbaf1251c	-0.00183979
105	0x3d11cbd5	0.03559478
106	0xbc814f96	-0.01578502
107	0x3cab2560	0.020891845
108	0xbcce02d8	-0.02514784
109	0x3d1a78d7	0.037712898
110	0xbd31d963	-0.043420207
111	0xbcc386b3	-0.02386794
112	0xbd0c6e26	-0.034284733
113	0x3b28e9d4	0.0025774138
114	0xbbc84114	-0.0061112735
115	0x3a3bb698	0.00071606925
116	0xbc53918e	-0.012913121
117	0xbd1c6075	-0.038177926
118	0x3d1d290a	0.038369216
119	0xbcd6c22d	-0.026215637
120	0x3b8ad2ef	0.004236571
121	0xbd3c1212	-0.04591567
122	0xbc955950	-0.018231064
123	0xbcd8c9b3	-0.026463365
124	0x3d401e23	0.04690374
125	0xbc88ec83	-0.01671434
126	0xbcba4474	-0.02273772
127	0x3cc3d026	0.023902964
128	0xbae3a1b1	-0.0017366913
129	0xbd862774	-0.06550494
130	0xbcd3f1b7	-0.025872095
131	0x3dcdc1b3	0.10046711
132	0x3d80b8b1	0.06285227
133	0xbcc2f505	-0.023798475
134	0x3d6a86e9	0.057257567
135	0xbd52de0f	-0.051481303
136	0xbca0df15	-0.019637624
137	0xbda133de	-0.07871221
138	0xbd89e2b8	-0.06732696
139	0x3d1b1622	0.037862904
140	0xbc75154a	-0.014958689
141	0x3de06996	0.10957639
142	0xbd824f0b	-0.063627325
143	0xbd0e21ef	-0.03470033
144	0xbc1ae43f	-0.009453832
145	0xbd4569d3	-0.048196625
146	0xbb193fac	-0.0023383899
147	0x3d64b37b	0.05583523
148	0xbd8abd47	-0.06774383
149	0xbcb66fcc	-0.022270106
150	0x3d98978d	0.07450781
151	0xbca612d1	-0.020272644
152	0xbddda1eb	-0.10821899
153	0xbcbb367a	-0.022853125
154	0xbcde99fa	-0.027173031
155	0xbc9b8e7f	-0.018988846
156	0x3dff511f	0.124666445
157	0xbc699de9	-0.01425884
158	0xbbe1463c	-0.0068748277
159	0x3db27117	0.087129764
160	0x3c2255be	0.009908138
161	0x3d1f27df	0.038856383
162	0x3c6e5e23	0.014548811
163	0xbd2c27c2	-0.042030104
164	0xbc278278	-0.010223977
165	0x3d54a169	0.051911745
166	0xbd35a723	-0.044348847
167	0x3d0184f1	0.031620923
168	0x3cae6704	0.021289356
169	0x3d80aecc	0.0628334
170	0x3d0f66b5	0.03501006
171	0xbcf5934d	-0.029977465
172	0x3ce4638c	0.027879499
173	0xbd8f7ec0	-0.070065975
174	0x3d177a8c	0.036982104
175	0x3d01ea12	0.031717367
176	0x3cde52c5	0.027139077
177	0x3d0ef18e	0.034898333
178	0xbbb2a099	-0.0054512736
179	0xbccf6111	-0.02531484
180	0x3ceec065	0.029144475
181	0x3cd09ca4	0.025465317
182	0xbd3928ff	-0.045205113
183	0x3cdf4ce3	0.027258342
184	0x3d5b3e28	0.053526074
185	0xbb2cd2ef	-0.0026370843
186	0x3cb43580	0.021998167
187	0x3cd5b241	0.026085975
188	0xbd8402dd	-0.06445859
189	0x3c18a3f9	0.009316438
190	0x3d18947d	0.037250984
191	0xbd315509	-0.043293986
192	0xbc7792f2	-0.015110718
193	0xbd067e1c	-0.03283511
194	0xbaf3acbb	-0.0018590906
195	0x3b85425c	0.0040667485
196	0x3ae88dad	0.0017742418
197	0x3cdf5c45	0.027265677
198	0x3cd95273	0.026528573
199	0xbc30d910	-0.010793939
200	0xbd2c4e6d	-0.04206698
201	0x3c997f8a	0.018737573
202	0x3c869a2b	0.016430935
203	0x3caecce9	0.021337943
204	0x3d1615cb	0.036641877
205	0x3c9f4e0d	0.019446397
206	0xbd892838	-0.06697124
207	0x3c685a6e	0.014181716
208	0x3bf0eb60	0.0073522776
209	0xbd0c2ca5	-0.034222264
210	0x3b8f2c24	0.0043692756
211	0x3c4ae802	0.012384417
212	0xbcd5ac11	-0.026083024
213	0x3c9c75c4	0.019099124
214	0x3adf777d	0.001704916
215	0x3c71dad2	0.0147616435
216	0xbd4584e6	-0.048222445
217	0xbd136f28	-0.03599468
218	0x3b358619	0.0027698337
219	0xbc91ab56	-0.017781895
220	0x3b4fdfdd	0.0031719126
221	0x3c829d62	0.015944187
222	0x3a91dfee	0.0011129358
223	0x3c5919f7	0.013250819
224	0xbd8a4329	-0.06751091
225	0xbddbf4bb	-0.10740038
226	0x3d18e662	0.037329085
227	0x3cd46c43	0.02593053
228	0xbcca1aaa	-0.024670918
229	0x3c3af319	0.011410498
230	0x3dda6928	0.10664588
231	0xbba5ecb8	-0.0050636195
232	0xbc7d0f15	-0.01544549
233	0x3d85018d	0.064944364
234	0xbdb125af	-0.08649766
235	0x3df98f30	0.12185514
236	0x3d36a569	0.04459134
237	0x3d045827	0.03231063
238	0xbdf89a8f	-0.12138855
239	0x3d598e54	0.05311425
240	0x3a71ab00	0.00092189014
241	0xbe0346b1	-0.12819935
242	0xbcbbe3e8	-0.022935823
243	0x3d1462e7	0.036227133
244	0xbe0046ac	-0.12526959
245	0x3d866702	0.06562616
246	0x3da878ba	0.08226152
247	0xbcdbc5fc	-0.026827805
248	0xbdcb0e7b	-0.09914871
249	0xbdecce20	-0.11562753
250	0xbd9d18ad	-0.07670722
251	0xbdd54ab3	-0.10414638
252	0x3ca6a05e	0.02034014
253	0x3cc0bc5b	0.023527315
254	0xbca277ac	-0.019832455
255	0x3cb56d1f	0.02214676

residuals.0.weight f4 [32, 4]
0	0x3cb2907f	0.021797417
1	0x3dea953c	0.114542454
2	0x3bf79dbe	0.007556646
3	0x3b31e340	0.0027143508
4	0x3e3e71fd	0.1859817
5	0x3e51a5b0	0.20473361
6	0x3e16826f	0.14698194
7	0x3b94368b	0.0045231036
8	0xbe0414dc	-0.12898582
9	0x3d2cd488	0.042194873
10	0xbdb3843c	-0.08765456
11	0x3a81d473	0.0009905234
12	0x3e545e5f	0.20739125
13	0xbe5ba21a	-0.21448556
14	0xbda7fb22	-0.08202197
15	0xbbc42570	-0.005985908
16	0x3e528a75	0.2056063
17	0xbe0fb4ef	-0.14033864
18	0x3d34c06c	0.04412882
19	0x3a6ef8ea	0.00091160706
20	0xbecf08cb	-0.40436396
21	0x3dad11b5	0.08450643
22	0xbd813269	-0.06308443
23	0xbc27d91f	-0.010244637
24	0x3d7e8acb	0.062144082
25	0xbec6eda5	-0.38853183
26	0xbdf2a104	-0.118471175
27	0xbab98a7d	-0.0014155653
28	0x3e046a4f	0.12931179
29	0x3dbb01c7	0.091311984
30	0x3e5ad03b	0.21368496
31	0x3c894afc	0.016759388
32	0xbc1ca346	-0.009560412
33	0x3e4a0b86	0.19730958
34	0x3d2cb388	0.0421634
35	0x3c07f3a8	0.008297838
36	0xbebd88c8	-0.37018418
37	0x3e2d5d63	0.16930155
38	0x3cbab553	0.02279154
39	0x3c0eaecc	0.008708667
40	0xbc55124b	-0.01300485
41	0x3e39b760	0.18136358
42	0x3ddd3928	0.10801917
43	0x3b504e0b	0.0031784798
44	0xbc43d6e7	-0.011953092
45	0xbe627edc	-0.22118706
46	0xbe40993a	-0.18808451
47	0xbb0b87f3	-0.002129075
48	0xbecebc0b	-0.4037784
49	0xbd12beda	-0.03582654
50	0xbd3e484a	-0.04645566
51	0xbaee3938	-0.0018175012
52	0x3d31fd03	0.04345418
53	0xbeca2304	-0.3947984
54	0xbdb684e7	-0.08912068
55	0xbc6e1d73	-0.014533388
56	0x3d04e582	0.03244544
57	0x3e889623	0.26677045
58	0x3d93c5e9	0.07215483
59	0x3c37bdf9	0.011214727
60	0xbe7bbbf0	-0.24583411
61	0xbcd637a0	-0.026149571
62	0xbda05e67	-0.07830506
63	0xbbd74a14	-0.00657011
64	0xbea5c733	-0.3237854
65	0x3cdf63fc	0.027269356
66	0xbdb60d25	-0.08889226
67	0xbbb41e70	-0.0054967925
68	0x3e710615	0.23537476
69	0x3e66b6ba	0.22530642
70	0x3dc37ea4	0.09545639
71	0x3bc254fa	0.00593054
72	0x3c1d2f18	0.009593748
73	0xbc1d0559	-0.0095837945
74	0x3c07facb	0.00829954
75	0xba9590a7	-0.0011410908
76	0x3d7d507b	0.06184433
77	0xbddce1a1	-0.10785223
78	0xbe0dee04	-0.13860327
79	0xbc91fddf	-0.01782125
80	0x3e8a101a	0.2696541
81	0x3e3a75fe	0.18209073
82	0x3dd21c26	0.10259275
83	0x3c061dec	0.008185845
84	0xbeb93523	-0.36173353
85	0xbdfd9780	-0.12382412
86	0xbd23a246	-0.039949678
87	0xbad81780	-0.0016486496
88	0x3d29d3ad	0.041461635
89	0xbed5c8c5	-0.41754737
90	0xbd911305	-0.07083706
91	0x3c1eef54	0.009700615
92	0xbec49b06	-0.38399523
93	0x3e2abcaf	0.1667354
94	0xbd72caf6	-0.05927559
95	0xbc1c1b89	-0.009528049
96	0x3e5d9750	0.21639752
97	0x3e9a9879	0.30194452
98	0x3df773df	0.120826475
99	0x3c4ad426	0.012379682
100	0x3c73c5b2	0.014878677
101	0x3ccb5ab1	0.024823518
102	0x3b12b445	0.002238528
103	0x3b540505	0.0032351625
104	0x3de097aa	0.109664276
105	0x3d12fa54	0.035883263
106	0x3e648cb5	0.223193
107	0x3c303cdc	0.0107566975
108	0x3e05e194	0.13074332
109	0x3dfbba34	0.12291375
110	0x3e48ea24	0.19620568
111	0x3aa8f7f0	0.0012891274
112	0x3e71c6be	0.2361097
113	0xbf050d3c	-0.5197332
114	0xbdb5171c	-0.088422984
115	0x3bcd707c	0.0062695127
116	0xbd37c94c	-0.044869706
117	0xbc3634af	-0.011120959
118	0xbd9f98ab	-0.07792791
119	0x3aa6af9c	0.0012717131
120	0xbebf7e19	-0.37400892
121	0x3e674cfc	0.22587961
122	0xbd8d676e	-0.06904493
123	0xbc0f787d	-0.008756754
124	0x3e1aff6c	0.15136498
125	0xbead3209	-0.33827236
126	0xbd9ec97f	-0.07753276
127	0xbbebf187	-0.007200423

residuals.0.bias f4 [32]
0	0x3caccd04	0.021093853
1	0xbeee1ebf	-0.46507832
2	0x3e7bd10e	0.24591467
3	0x3e318930	0.17337489
4	0xbe4ea153	-0.20178728
5	0x3de96e81	0.1139803
6	0x3e54ae01	0.20769502
7	0xbe9635bc	-0.2933787
8	0xbd1e2337	-0.038607802
9	0xbde026c0	-0.10944891
10	0xbe38ca88	-0.1804601
11	0x3e9e8bf4	0.3096615
12	0x3d3d5f89	0.046233688
13	0x3e1271b5	0.14301188
14	0xbe8b79e8	-0.27241445
15	0x3e97a3b7	0.29617092
16	0x3e2d4d9c	0.16924137
17	0xbe8abbea	-0.27096492
18	0xbcf534b5	-0.02993236
19	0x3e707ab8	0.23484313
20	0xbe5ea1ac	-0.2174136
21	0x3e8ddc6a	0.27707225
22	0x3e9403bb	0.28909096
23	0x3e679e42	0.22618964
24	0xbebb836f	-0.36623713
25	0x3c798295	0.015228887
26	0xbeadee58	-0.33970904
27	0xbec4dd9f	-0.38450333
28	0x3e9f74eb	0.3114389
29	0x3e0aa26b	0.1353852
30	0x3e3b31f2	0.18280771
31	0x3e6b03fb	0.22950737

residuals.1.weight f4 [32, 32]
0	0xbaf2a287	-0.0018511572
1	0xbd2d4ce0	-0.04230964
2	0x3d16e69b	0.036841016
3	0x3d955fb1	0.07293642
4	0x3d0e239c	0.03470193
5	0x3c31dacf	0.010855391
6	0x3d9d77e5	0.07688884
7	0xbe01d024	-0.12677056
8	0xbbe3cc3f	-0.0069518383
9	0xbda1780c	-0.07884225
10	0xbcc50c35	-0.024053672
11	0x3df5557a	0.11979194
12	0xbb286213	-0.0025693222
13	0x3da74919	0.08168239
14	0xbd8ee89f	-0.06977963
15	0x3ceb6c2a	0.0287381
16	0x3d0ed815	0.03487404
17	0xbc6067bc	-0.013696607
18	0x3bf94d8f	0.0076081227
19	0x3d923bee	0.07140337
20	0xbd5b36fc	-0.053519234
21	0x3cacdbc4	0.021100886
22	0x3dac9c1a	0.084282115
23	0x3d8bf0fe	0.06833075
24	0xbdaf8187	-0.08569627
25	0xbd0b85da	-0.034063198
26	0xbdf93fdc	-0.12170383
27	0xbd8cb5ca	-0.06870611
28	0x3d69cee3	0.05708207
29	0x3d638f28	0.055556446
30	0x3d1572b3	0.03648634
31	0x3da2aafa	0.079427674
32	0x3c86c8ed	0.01645323
33	0xbce5bac6	-0.028043162
34	0x3cdbdbdd	0.026838237
35	0x3dd4d958	0.103930175
36	0xbd5d39a9	-0.054010067
37	0x3d768060	0.06018102
38	0x3d859bee	0.06523882
39	0xbda90e18	-0.08254641
40	0x3aa8de2a	0.0012883593
41	0xbd8e579a	-0.069503024
42	0xbd1b4dc6	-0.037915967
43	0x3df088e7	0.11744862
44	0x3b94330b	0.0045226864
45	0x3d51d54b	0.051228803
46	0x3cb282c7	0.021790875
47	0x3d8e0f89	0.06936557
48	0x3d98029a	0.07422371
49	0xbb4ae157	-0.0030957067
50	0x3af95749	0.0019023205
51	0x3d9ee5cb	0.07758673
52	0xbcb4b8cf	-0.02206078
53	0x3ce7332d	0.028222645
54	0x3d2a384c	0.041557595
55	0x3de48f2f	0.111601226
56	0xbc8d1620	-0.017222464
57	0xbcebf898	-0.028805062
58	0xbd64f676	-0.055899106
59	0xbd9eac48	-0.07747704
60	0x3d958733	0.07301178
61	0x3c38c6e5	0.011277889
62	0x3de70f7d	0.11282251
63	0x3dcb8c70	0.09938896
64	0x3c99d45b	0.018778017
65	0xbcf1090f	-0.029423265
66	0x3d6aacba	0.05729363
67	0xbcba52af	-0.022744505
68	0xbdfc7f31	-0.12328947
69	0x3dcf9dd8	0.10137528
70	0xbcf28ceb	-0.02960821
71	0xbdca12ce	-0.09866868
72	0xbc5ea7be	-0.013589798
73	0x3c864a8e	0.016392972
74	0xbb73ef56	-0.0037221513
75	0x3d7dde73	0.061979722
76	0x3da9222d	0.08258472
77	0xbd5d1be9	-0.053981695
78	0x3d814e68	0.06313783
79	0x3dbfaac7	0.09358745
80	0x3e04a4ab	0.12953441
81	0xbd150631	-0.036382858
82	0xbc795999	-0.015219116
83	0x3d1f9faa	0.038970627
84	0xbd42b50c	-0.04753594
85	0x3d2ea9b9	0.04264233
86	0xbd3033d4	-0.043018177
87	0x3dafca8d	0.08583555
88	0xbb3ca6fa	-0.002878605
89	0x3d137266	0.03599777
90	0xbe0b28de	-0.13589808
91	0xbda98fed	-0.08279405
92	0xbda9df17	-0.08294504
93	0x3d6d9e90	0.058012545
94	0x3dfad0f5	0.12246887
95	0xbd0b83a9	-0.034061108
96	0xbb8db18c	-0.0043241438
97	0x3c8f2b3c	0.01747667
98	0xbc0c90c1	-0.008579434
99	0xbc53b753	-0.012922126
100	0x3d16e426	0.036838673
101	0xbce0113a	-0.027351964
102	0xbc4a5926	-0.012350356
103	0x3cfc0cd7	0.030767841
104	0xbc4ae72e	-0.012384219
105	0xbcf37e60	-0.029723346
106	0x3b8ecada	0.004357678
107	0xbd004a6d	-0.031320978
108	0xbd03062c	-0.031988308
109	0xbca15bb8	-0.019697055
110	0x3c7ba3ff	0.015358924
111	0xbcb8dc30	-0.022565931
112	0xbd205cb4	-0.03915091
113	0x3b283bb3	0.002567035
114	0xbbd4f2bd	-0.006498663
115	0xbcebf8b2	-0.02880511
116	0x3c0174bc	0.007901367
117	0xbc52c98e	-0.012865437
118	0xbb0cbaa2	-0.0021473547
119	0xbd2dc33f	-0.04242253
120	0x3c1f4b5d	0.009722558
121	0xbc79ed13	-0.015254277
122	0x3ce136eb	0.027492007
123	0x3c4f2299	0.012642526
124	0xbc143cc7	-0.009047694
125	0xbc88e4e2	-0.016710702
126	0xbc93398a	-0.017971773
127	0xbc846fde	-0.016166624
128	0x3b86b933	0.004111433
129	0x3da6fe93	0.08154025
130	0xbd6bb7ab	-0.057548206
131	0xbd0fe636	-0.035131656
132	0xbae346e9	-0.0017339858
133	0xbc8e43f2	-0.017366383
134	0xbde2fb81	-0.11083127
135	0x3d801247	0.06253486
136	0xbd22536f	-0.03963035
137	0xbce14c3c	-0.027502172
138	0x3d2ca7df	0.04215228
139	0xbdd75717	-0.10514658
140	0xbd41015e	-0.047120444
141	0xbc98f0e5	-0.018669555
142	0xbc30f0d4	-0.010799605
143	0xbc8675f4	-0.016413666
144	0xbbf96756	-0.0076111956
145	0x3d1af682	0.037832744
146	0x3c0cda8b	0.008597027
147	0xbd76f560	-0.0602926
148	0xbb35d44c	-0.0027744947
149	0x3b0d257e	0.002153724
150	0xbd692dde	-0.056928508
151	0xbd55e2f2	-0.052218385
152	0x3e02d76f	0.12777494
153	0xbd4dbd6d	-0.05022948
154	0x3daadf4f	0.08343374
155	0x3de23078	0.11044401
156	0xbd3688fb	-0.04456423
157	0xbd1f6d68	-0.038922697
158	0xbd08219e	-0.033235185
159	0xbd587d26	-0.052853726
160	0x3c6e9004	0.014560703
161	0xbd244afb	-0.04011057
162	0x3d3b8ef8	0.045790642
163	0x3cb5fec0	0.0222162
164	0xbc816c63	-0.015798753
165	0x3d62b1ac	0.055345222
166	0x3cfa38cf	0.030544667
167	0xbd2e89a2	-0.042611726
168	0xbb9a919f	-0.0047170664
169	0xbd10a64c	-0.035314843
170	0xbd0f3826	-0.034965657
171	0x3d80f43c	0.06296584
172	0x3d374717	0.04474553
173	0x3c3ff08b	0.011715065
174	0xbd0c63b8	-0.034274787
175	0x3d3f3fe9	0.04669181
176	0x3d59958e	0.053121142
177	0xbd85e1ce	-0.065372095
178	0xbb4348d7	-0.0029798055
179	0x3cee60b0	0.029098839
180	0xbd7ba8cc	-0.061440274
181	0x3c3ca609	0.011514195
182	0x3c73e497	0.014886043
183	0x3d01cdf0	0.031690538
184	0xbc8cc97a	-0.017185915
185	0x3d1ae12d	0.0378124
186	0xbd3c0f05	-0.04591276
187	0xbd067baf	-0.032832798
188	0x3bc6dbcd	0.0060686828
189	0x3d21390a	0.039361037
190	0x3d040775	0.032233674
191	0x3c4dbc7f	0.012557148
192	0x3b2ee28b	0.0026685323
193	0xbcc10281	-0.023560764
194	0x3ca28089	0.019836681
195	0x3d58cc70	0.05292934
196	0xbcaaba4e	-0.02084079
197	0x3d06ebc0	0.032939672
198	0x3d19725d	0.03746258
199	0xbd67bf52	-0.05657894
200	0xbcb0e6b0	-0.021594375
201	0xbb6be272	-0.0035993126
202	0xbb32d995	-0.0027290334
203	0x3d28b29e	0.041185968
204	0x3d537df8	0.051633805
205	0x3d4158cf	0.047203835
206	0xbcb298be	-0.021801349
207	0x3cbb89d9	0.02289288
208	0x3d602730	0.054724872
209	0xbc880c16	-0.016607326
210	0x3bc68c09	0.006059174
211	0x3d30caf3	0.043162297
212	0xbcfa43c4	-0.030549891
213	0x3d240f53	0.040053677
214	0x3d193eaf	0.037413295
215	0x3d4281fe	0.04748725
216	0xbca17309	-0.019708173
217	0xbc48e4ee	-0.012261612
218	0xbd314307	-0.043276813
219	0xbce97cf2	-0.028501961
220	0x3d5a1549	0.053242955
221	0x3c90a123	0.017654961
222	0x3d523976	0.05132433
223	0x3d2ca439	0.042148802
224	0x3cd33e79	0.025786625
225	0xbd84c717	-0.06483286
226	0x3d48423f	0.048891302
227	0x3d5f9af2	0.054591127
228	0x3d4bea3e	0.049783938
229	0xbc096dd3	-0.008388001
230	0x3db220d4	0.08697668
231	0xbddef9c9	-0.108874865
232	0xbd769780	-0.060203075
233	0xbdc14b1b	-0.09438153
234	0xbd8f0f4c	-0.069853395
235	0x3dc59dec	0.09649262
236	0x3c36694e	0.011133505
237	0x3dba6fd2	0.09103359
238	0xbdce1e43	-0.10064366
239	0x3d060c55	0.032726604
240	0xbc3c4767	-0.011491633
241	0xbd23866c	-0.039923117
242	0x3aee339f	0.0018173343
243	0x3da8d6fd	0.08244131
244	0xbc8f1765	-0.01746721
245	0x3c1fa606	0.009744173
246	0x3d957d24	0.07299259
247	0xbc8e35ac	-0.017359577
248	0xbd001708	-0.031271964
249	0x3c91c20f	0.01779273
250	0xbd9b61d8	-0.075870216
251	0xbd87bde0	-0.06628013
252	0x3dbaed9e	0.09127353
253	0x3ca08898	0.019596383
254	0xbb4623c8	-0.003023373
255	0x3da8728c	0.08224973

residuals.1.bias f4 [32]
0	0x3df2d689	0.118573256
1	0x3e06c7e9	0.13162197
2	0x3cfaba54	0.030606426
3	0xbcb35405	-0.02189065
4	0xbd859a5b	-0.065235816
5	0x3c6cdf96	0.014457604
6	0x3d7e2fdc	0.06205736
7	0x3dc2354e	0.09482823
8	0x3dcd8206	0.10034566
9	0xbd6f47f0	-0.058418214
10	0xbc8cf53d	-0.017206782
11	0xbd5fbb45	-0.054621954
12	0xbdc97390	-0.09836495
13	0x3daa8835	0.08326761
14	0xbd870db9	-0.06594414
15	0x3dd7e7dc	0.105422705
16	0xbd90622a	-0.07049973
17	0x3d3d1002	0.046157844
18	0x3d9ce7dd	0.07661412
19	0xbd665ff1	-0.05624384
20	0x3d8ada85	0.067799605
21	0xbd9c3694	-0.076275975
22	0xbd4ce14b	-0.050019544
23	0xbd6623af	-0.056186374
24	0xbde5a62a	-0.11213334
25	0x3d7ab11f	0.061204072
26	0x3d5c4e36	0.053785525
27	0xbd595479	-0.053059075
28	0xbcbf1cd9	-0.023329185
29	0xbd654ff2	-0.055984445
30	0xbd39cb9e	-0.0453602
31	0x3d00ce7c	0.03144692

mlp.0.weight f4 [16, 32]
0	0xbcde3fab	-0.027129969
1	0xbd83b511	-0.0643102
2	0xbdda5546	-0.10660796
3	0xbd1a7f57	-0.037719097
4	0x3e0e64f1	0.13905694
5	0x3d13445f	0.035953876
6	0x3d9329ed	0.07185731
7	0x3d418874	0.047249272
8	0xbd89a5b3	-0.06721058
9	0x3dca6dbd	0.09884212
10	0x3db1b3fd	0.08676908
11	0x3db81ead	0.08990226
12	0x3dfaed0b	0.122522436
13	0x3d69dc9b	0.05709515
14	0x3dcf8e01	0.10134507
15	0xbafea87f	-0.0019428878
16	0x3c9dc101	0.01925707
17	0xbd0a59b0	-0.03377694
18	0xbd6d7bd3	-0.057979416
19	0xbd57d94d	-0.05269747
20	0xbc5bb59d	-0.013409999
21	0x3df01f64	0.11724737
22	0x3c8679d0	0.016415507
23	0xbc67ac04	-0.014140133
24	0x3ddfbdd7	0.10924881
25	0xbc48ffcc	-0.012268018
26	0xbcc24dd4	-0.023718752
27	0x3db54109	0.08850295
28	0x3d222f09	0.039595637
29	0x3df14538	0.117807806
30	0x3cc9d183	0.024636036
31	0xbda4eff0	-0.08053577
32	0xa3b80118	-1.9949783e-17
33	0xa50f0bee	-1.2407315e-16
34	0xa5dfedbb	-3.8845426e-16
35	0xa208a19c	-1.8516992e-18
36	0x24f13810	1.0461206e-16
37	0xa4c4ef31	-8.5406656e-17
38	0x251f262f	1.3803989e-16
39	0xa442af88	-4.2215725e-17
40	0xa56e9829	-2.0694763e-16
41	0x250da001	1.2284012e-16
42	0xa4c03a2f	-8.3365294e-17
43	0x25257b33	1.435321e-16
44	0x25100c6b	1.2494216e-16
45	0x2254eaf0	2.8855732e-18
46	0x25151c01	1.2933178e-16
47	0x23216278	8.748679e-18
48	0x2582538a	2.2608013e-16
49	0xa56e79a5	-2.0684424e-16
50	0x245f079c	4.8361862e-17
51	0xa50613a6	-1.1629304e-16
52	0x253a4ac5	1.6158261e-16
53	0x24536f37	4.5847534e-17
54	0x251432e9	1.2854203e-16
55	0x25e7c512	4.0205652e-16
56	0x25b47871	3.1306637e-16
57	0xa5fdc5e8	-4.402261e-16
58	0xa53671f2	-1.582459e-16
59	0x253625d7	1.5798804e-16
60	0x2563bbda	1.9752758e-16
61	0xa45657ce	-4.6478226e-17
62	0x251332e0	1.2767455e-16
63	0xa4d492e4	-9.2189187e-17
64	0x3e668b18	0.22513998
65	0x3df76c6e	0.12081228
66	0xbb8ba045	-0.004261049
67	0x3c12ad3c	0.008952435
68	0xbcc68627	-0.02423389
69	0x3d17de07	0.037076976
70	0x3e05224b	0.13001363
71	0x3e8d8826	0.27642936
72	0x3d8e582f	0.069504134
73	0xbd610248	-0.054933816
74	0xbe22cf06	-0.15899286
75	0xbc2a25a8	-0.0103849545
76	0xbde41920	-0.11137605
77	0x3dc05d0d	0.09392748
78	0x3d15a361	0.036532763
79	0x3e429ee9	0.19005932
80	0xbd90e339	-0.07074589
81	0x3c8d7b5c	0.017270736
82	0x3e835ec5	0.2565824
83	0xbe310911	-0.17288615
84	0x3e774404	0.2414704
85	0x3d5a298d	0.053262282
86	0xbcd4f91b	-0.025997689
87	0xbd9ec009	-0.077514715
88	0xbd98c985	-0.07460312
89	0x3e802119	0.25025252
90	0x3dd29d1a	0.10283871
91	0x3b852a6b	0.0040638945
92	0x3b98a829	0.004658718
93	0xbbb03d24	-0.0053783823
94	0xbde1eb25	-0.110311784
95	0x3d3c1f59	0.045928333
96	0xbd1d7dc9	-0.038450036
97	0xbcbcdb14	-0.023053683
98	0xbdb85f1c	-0.09002516
99	0x3bc1a5dc	0.0059096646
100	0x3d28aff6	0.041183434
101	0xbde167f3	-0.11006155
102	0x3ccee9da	0.025257993
103	0x3bd1fc4f	0.0064082514
104	0xbce93710	-0.028468639
105	0x3d3fce35	0.046827514
106	0xbd860c79	-0.06545348
107	0x3d4fb790	0.05071217
108	0x3d7da7bc	0.061927542
109	0xbd49d8d8	-0.049279064
110	0x3dc82334	0.097723395
111	0x3cd70c9c	0.02625113
112	0x3cf3cb50	0.029760033
113	0xbd4d0eb0	-0.050062835
114	0xbcaa04a3	-0.020754164
115	0x39941859	0.000282469
116	0xbca4beaf	-0.020110456
117	0x3da1abff	0.07894134
118	0x3d9d04bd	0.076669194
119	0x3d0bac39	0.03409979
120	0x3db80a2b	0.089863144
121	0x3cf59c1d	0.029981667
122	0xbdae98b3	-0.08525219
123	0x3d2b996d	0.041894365
124	0x3d032ce9	0.03202525
125	0x3decdfdc	0.11566135
126	0x3d6871c9	0.05674914
127	0xbd0692c6	-0.032854818
128	0x3dd074cc	0.10178527
129	0x3dc1189e	0.094285235
130	0x3cbdac94	0.02315358
131	0xbc5d3879	-0.013502234
132	0xbd1caab5	-0.038248736
133	0x3d10c021	0.03533948
134	0x3d9ce273	0.07660379
135	0x3d82513e	0.06363152
136	0x3d82907f	0.06375217
137	0xbd145438	-0.03621313
138	0xbdb7a66d	-0.0896729
139	0x3b75e927	0.0037523003
140	0xbd9097c7	-0.07060199
141	0x3b6eca46	0.0036436482
142	0xbcee61ba	-0.029099334
143	0x3dc1ac3e	0.09456681
144	0xbd8b1013	-0.06790175
145	0x3c78b0be	0.015178857
146	0x3e06f8db	0.13180868
147	0xbd7cc7ea	-0.06171409
148	0x3df52508	0.11969954
149	0xbc032537	-0.008004478
150	0xbd1d05da	-0.03833566
151	0xbd209e59	-0.039213512
152	0xbd615d6b	-0.05502073
153	0x3dde48df	0.10853743
154	0xbbf5f36d	-0.0075058253
155	0xbd35739b	-0.044299703
156	0xbcbf1bbb	-0.023328653
157	0xbbedf11b	-0.007261408
158	0xbd2f687c	-0.042824253
159	0x3d5ab7f6	0.053398095
160	0xa71ed286	-2.204103e-15
161	0xa813bbe1	-8.200879e-15
162	0xa8e37396	-2.525219e-14
163	0x26aa9535	1.1836562e-15
164	0x282619d4	9.220452e-15
165	0xa74d430b	-2.848581e-15
166	0x27dfde4a	6.213594e-15
167	0xa799936e	-4.2625874e-15
168	0xa85bc8cd	-1.2200484e-14
169	0x2836a49e	1.0138725e-14
170	0xa78b2bb1	-3.862762e-15
171	0x28144ef5	8.2327715e-15
172	0x28341caf	9.998227e-15
173	0xa5b1808f	-3.079172e-16
174	0x27fde0ec	7.0465467e-15
175	0xa6166021	-5.2171983e-16
176	0x286c0784	1.3102261e-14
177	0xa842e2bc	-1.08183285e-14
178	0x272a81de	2.366264e-15
179	0xa7d2c891	-5.8504163e-15
180	0x27e0dc34	6.2411234e-15
181	0x2765ed85	3.1908894e-15
182	0x27fe538f	7.0589756e-15
183	0x28c4739c	2.1810509e-14
184	0x28c8576f	2.2242379e-14
185	0xa8c751ee	-2.212897e-14
186	0xa7ec318e	-6.5556886e-15
187	0x280ba510	7.751842e-15
188	0x284fa8d8	1.15274205e-14
189	0xa4a65d60	-7.214921e-17
190	0x27d1e11f	5.825323e-15
191	0xa8072a31	-7.503154e-15
192	0xb994d21f	-0.00028385312
193	0xbca72c96	-0.020407002
194	0xbcdaa063	-0.026687806
195	0x3b1f8a08	0.0024343748
196	0x3cf82c2e	0.030294504
197	0xbc4fef77	-0.01269137
198	0x3b15046c	0.0022738231
199	0x3ca45a8a	0.020062704
200	0xbc775bae	-0.015097542
201	0x3c348407	0.011017806
202	0x3c6b5912	0.014364498
203	0x3c543a44	0.012953345
204	0x3c9a1d0c	0.018812679
205	0xbb162bd7	-0.0022914314
206	0x3cdd2690	0.026995927
207	0x3abe088d	0.0014498398
208	0x3c6a2d48	0.014293022
209	0xbc787e37	-0.015166811
210	0xbbb41f30	-0.005496882
211	0x3c992737	0.018695457
212	0xbc842dba	-0.016135085
213	0x3ccd5551	0.025065096
214	0x3c666fa2	0.014064701
215	0x3bc9a36c	0.0061535146
216	0x3cb3432f	0.021882622
217	0x3b842fce	0.004034019
218	0xbc636c70	-0.013880834
219	0x3c6f66f2	0.014611946
220	0x3c5a3f2f	0.013320728
221	0x3d277a44	0.040888086
222	0x3c455419	0.012043976
223	0xbca77343	-0.020440703
224	0xbca63864	-0.020290561
225	0xbcb53bbf	-0.022123216
226	0xbd260a8a	-0.040537395
227	0x3c808549	0.015688555
228	0x3d945f63	0.07244756
229	0x3c16bba9	0.009200015
230	0x3c16f73f	0.0092142215
231	0x3ca2a4f3	0.019854045
232	0xbd024c4f	-0.031811055
233	0x3d143975	0.036187608
234	0xbcd87812	-0.026424441
235	0x3d07f9db	0.033197265
236	0x3d16c242	0.036806352
237	0xbb162952	-0.0022912812
238	0x3d163f2c	0.03668134
239	0xba9af324	-0.0011821729
240	0x3ccb2a1e	0.024800356
241	0xbd024e7a	-0.031813122
242	0xbc83ac7c	-0.016073458
243	0x3d1890e4	0.037247553
244	0xbd2f6e13	-0.042829584
245	0x3d18f7bc	0.037345633
246	0x3cfc754e	0.030817654
247	0x3bdc52d8	0.006723743
248	0x3d39b857	0.045341816
249	0x3cd0bbcf	0.02548018
250	0xbd2034db	-0.039112907
251	0x3cadfe5d	0.021239454
252	0x3cab0ed1	0.020881088
253	0x3d8b6d59	0.06807966
254	0x3bdda988	0.0067645945
255	0xbd27e49f	-0.040989514

mlp.0.bias f4 [16]
0	0xbe30f059	-0.17279185
1	0xa4647cec	-4.9545432e-17
2	0x3e10d23f	0.14142703
3	0xbe0c5cd9	-0.13707294
4	0x3d893cc1	0.06701041
5	0xa70f2174	-1.9863372e-15
6	0xbd4875cd	-0.04894047
7	0xbd94df0f	-0.072691076
8	0x3da96397	0.082709484
9	0x3e4ae209	0.19812788
10	0xbe0ec8de	-0.13943812
11	0xbdbfa141	-0.093569286
12	0x3e0158f0	0.12631583
13	0x3d30b26d	0.04313891
14	0x3e5a0751	0.21291853
15	0xbe0cdf9f	-0.1375718

mlp.1.weight f4 [1, 16]
0	0x3e839d29	0.2570584
1	0x23f0f6da	2.6125398e-17
2	0xbeceabb9	-0.4036539
3	0x3e644000	0.22290039
4	0xbe59b00c	-0.21258563
5	0x26b68bd3	1.2666686e-15
6	0x3d64b09f	0.0558325
7	0x3de7ff2f	0.11327969
8	0xbe1c4437	-0.15260397
9	0xbe8cc70c	-0.2749561
10	0x3e8eb7bf	0.27874562
11	0x3e017f3e	0.12646195
12	0xbe1898aa	-0.14901987
13	0xbe22e80e	-0.15908834
14	0xbeaa7793	-0.33294353
15	0x3e4dcf99	0.20098723
