best_model_sbm.pt (torch, 18549 bytes, 15 tensors)

gat_layers.0.att_src f4 [1, 4, 8]
000000 ea b0 e2 bd 81 fa 06 bc 87 c4 30 3e 92 d6 06 3e
       -0.110689 -0.008238436 0.17262469 0.1316779
000010 d4 70 86 bc 31 1a 0d 3c df 4b 15 3c 4a a3 45 3d
       -0.016411223 0.008612202 0.009112327 0.048251428
000020 14 e9 38 bd 14 9a 89 be 95 0d bf 3e ac 09 6b be
       -0.045144156 -0.26875365 0.3731505 -0.22952908
000030 2f f1 03 3e ef ae 15 bc de 2d 51 3e 7c 08 a1 bd
       0.12884973 -0.009135946 0.20427653 -0.078629464
000040 e9 16 8a 3d 67 65 29 3c ed 4c a5 be ae e6 5d 3e
       0.06742651 0.010339118 -0.32285252 0.21670029
000050 79 78 84 3e e2 f8 4a bc 38 35 be 3e b6 34 b1 3d
       0.25873163 -0.01238844 0.37149978 0.08652632
000060 07 88 86 3e 6e 4b 02 3e 5d 0d 03 3e b0 5b f5 bd
       0.26275656 0.12724087 0.12798066 -0.11980379
000070 7c 44 e3 bd ac ea a7 be 7b e9 62 be e5 72 61 be
       -0.11097047 -0.32796228 -0.22159378 -0.22016485

gat_layers.0.att_dst f4 [1, 4, 8]
000000 77 f3 cf b4 7d ce d0 32 72 06 ad 34 e9 59 2f 34
       -3.8733899e-07 2.4308287e-08 3.222845e-07 1.6330854e-07
000010 e6 aa 28 33 2f d3 f5 33 ec 68 6c 32 73 0c 8d 33
       3.927098e-08 1.14471156e-07 1.37608644e-08 6.568089e-08
000020 db 82 60 3d c0 9b 6f bd 35 99 a6 bd b8 f4 82 bc
       0.054812293 -0.058498144 -0.08134691 -0.015985832
000030 ea 5a 92 bd 28 ff 17 3e 64 11 a5 bd cf fa 33 3d
       -0.07146247 0.14843428 -0.080599576 0.04394036
000040 ef e1 f2 bb d1 17 21 3e 85 44 3f be dd e7 a6 bd
       -0.0074121873 0.15731741 -0.18678482 -0.08149693
000050 8a ed 29 be 52 f4 19 3c 60 5a 1f be 52 b1 b0 bd
       -0.1659452 0.009396629 -0.15561819 -0.08627571
000060 c3 fd 67 be 7d aa 88 3d 54 ae 1a be a9 db 03 be
       -0.22655396 0.06673143 -0.15105563 -0.12876762
000070 92 8a 01 bc 8b 79 f2 3e f8 58 18 3d 14 44 8f 3e
       -0.007906573 0.47358355 0.037194222 0.27981627

gat_layers.0.bias f4 [32]
000000 7a 27 2c 3e 5f 05 92 3d 12 70 bd be 9c 65 27 3e
       0.16811934 0.07129931 -0.36999565 0.16347355
000010 40 fa 9e be 36 3d 59 3c 9d 40 9e 3d 8a 6d 88 3b
       -0.310503 0.013259223 0.07727168 0.0041634487
000020 53 bc a5 3e 30 0e 75 be 76 22 6c 3e e0 01 82 be
       0.32370242 -0.23931193 0.23060021 -0.25392056
000030 63 43 99 be bb 9a 8a 3e 66 94 67 3d 9d 3c 07 be
       -0.29934224 0.27071175 0.05653801 -0.13206716
000040 24 72 8e be 92 52 62 3e 24 47 38 3d e1 92 64 be
       -0.27821457 0.2210181 0.04498972 -0.22321655
000050 52 66 e9 bd 3d f0 26 be 87 67 d4 3c 8f e1 9b 3d
       -0.11396469 -0.16302581 0.025928272 0.07611381
000060 f1 25 07 3e fb 66 c5 3d 47 bc a0 be 36 55 d7 bd
       0.13198067 0.096387826 -0.31393644 -0.105142996
000070 92 fd 16 3e a0 82 85 3e 2b 05 c4 3d 3f 54 d2 bd
       0.14745167 0.2607622 0.09571298 -0.10269975

gat_layers.0.lin.weight f4 [32, 4]
000000 6e d7 67 3e dc 81 95 3e 5b 09 82 3c 42 f1 93 3b
       0.22640774 0.29200637 0.015873602 0.004514844
000010 d1 be f2 bc 62 11 bd ba de da 16 3b 40 36 a1 3a
       -0.029632004 -0.0014424736 0.0023018639 0.0012299493
000020 22 de 18 bd 21 ea b1 be 47 a8 fe 3b cc 6d b0 3b
       -0.037321217 -0.3474894 0.007771525 0.0053841826
000030 d1 2c cc bc 7c 84 4a be c5 7a e5 bb 44 d9 a2 bb
       -0.024923714 -0.19777101 -0.0070031607 -0.0049697477
000040 8d 53 8c bd cf f7 ba 3c 28 77 03 bc b7 15 55 ba
       -0.068518735 0.022823242 -0.0080240145 -0.0008128541
000050 eb 29 c0 be 0d f6 f0 3d 08 4e f9 3b 74 37 c5 b8
       -0.3753198 0.117656805 0.007608179 -9.404021e-05
000060 05 c9 43 b9 2e 7d ab bc cd 3d 5a 39 64 6e ac ba
       -0.00018671535 -0.020933714 0.00020813123 -0.0013155458
000070 03 92 fa ba 15 64 85 bd 09 1d 1e 3b eb bd 9f 3a
       -0.0019117001 -0.0651323 0.0024126193 0.0012187337
000080 47 e9 d0 bc 2f d8 d7 3d 84 f1 ab 3c e8 1b af 3b
       -0.02550186 0.105392806 0.020989187 0.005343903
000090 d2 2d 66 be 2c 72 ef 3b a7 d7 5e b9 7c 9f a2 3a
       -0.22478417 0.0073073115 -0.00021251907 0.0012407149
0000a0 60 a3 33 3c 7e ca 20 be 11 98 8f ba 8c ef ea 3b
       0.010964245 -0.15702245 -0.0010955354 0.0071696695
0000b0 a3 9e 0e be f8 3b 8c 3d 1a 68 7c 3b fb d6 b3 3b
       -0.13927703 0.06847376 0.0038514198 0.005488274
0000c0 99 19 67 3d 95 69 24 be b2 81 4c bc 98 2f 1c bc
       0.056420896 -0.16055901 -0.012482094 -0.009532832
0000d0 5a a6 32 3d aa 0f bb 3e 00 28 a7 3c ce 8c 14 3c
       0.043615676 0.36535388 0.020404816 0.009066774
0000e0 80 7b 43 be 88 f2 0c 3c c2 23 c1 3a fa d2 5f 3b
       -0.1909008 0.008602746 0.0014735388 0.0034152851
0000f0 76 11 b3 bd e6 1c db 3d 62 e5 07 3c 3d 0d 30 3a
       -0.08743565 0.10698871 0.008294435 0.000671584
000100 a0 b4 19 be 60 2f 67 ba 78 77 aa bb 8c 72 00 3b
       -0.15010309 -0.000881901 -0.00520223 0.0019599525
000110 fd 87 ad 3d 24 01 7d 3e c4 44 8a 3c d3 ae 3c 3b
       0.08473203 0.24707466 0.016878493 0.0028790727
000120 86 01 57 be 6f 02 5c 3d 35 b0 b5 ba a2 74 a9 3a
       -0.20996675 0.05371326 -0.0013861718 0.0012928436
000130 c3 f9 bf 3c 45 77 71 be 57 43 ee bc cf bb 90 bc
       0.023434525 -0.23580654 -0.029084845 -0.01766768
000140 91 a9 8b 3e 3b 0a 88 be d0 21 6e bc 13 e3 1f ba
       0.27277806 -0.26570305 -0.014534429 -0.00060992053
000150 41 c9 bb bd c8 de 1e 3d 3e 0b 81 bb d4 9f 3c bb
       -0.091692455 0.03878668 -0.0039381078 -0.0028781788
000160 42 4a 94 be 50 58 61 be 6a 27 76 bc b5 f2 28 bb
       -0.28962904 -0.22006345 -0.0150240455 -0.002577943
000170 4e fe 09 3d 7a f3 96 bd 8a c1 b7 bb ee 08 9d 3a
       0.03368979 -0.07370658 -0.0056077885 0.0011980811
000180 a3 e0 0d be 7d db 46 be 16 e7 19 bc 15 53 54 3a
       -0.13855223 -0.19419666 -0.009393474 0.00080995384
000190 13 83 35 3e 53 7c dd bd 89 a1 22 3b 97 86 64 bb
       0.17725782 -0.108147286 0.002481552 -0.003487026
0001a0 30 e9 1f 3e 92 a9 82 be d4 93 4e bc 84 08 1b 3c
       0.15616298 -0.25519997 -0.012608487 0.0094624795
0001b0 fb 72 87 be db 08 28 3d 99 c8 e4 bb 3b 69 9a ba
       -0.2645491 0.04102407 -0.006981921 -0.0011780629
0001c0 66 57 2b be 31 d0 d1 3d d9 b9 a6 3a cf 53 a5 bb
       -0.16732559 0.102447875 0.0012720182 -0.005045391
0001d0 fa 16 30 bb c7 63 94 3e ca 83 e6 3c e7 8b 10 bc
       -0.0026869164 0.28982374 0.028139014 -0.008822418
0001e0 d7 68 ee 3d 3d 5d 53 3e d2 b9 e4 3c 7b 3f d8 3b
       0.1164109 0.20641036 0.027920637 0.0065993643
0001f0 9a a9 1f be 65 9e 9f 3e e5 30 57 3c 08 92 6a 38
       -0.15592042 0.31175533 0.013134216 5.592595e-05

gat_layers.1.att_src f4 [1, 4, 8]
000000 b2 6d 01 bd d2 57 53 bd 8a b4 52 3d 0c 59 87 bd
       -0.031598754 -0.051597424 0.051441707 -0.06608781
000010 d6 fa 06 be df b2 df 3d 07 27 38 3e 6a 99 32 3e
       -0.13181624 0.10922789 0.17983638 0.17441335
000020 db f0 00 be 4c 91 96 3d 06 ff 86 3d 14 e3 ad be
       -0.12591879 0.07351932 0.065916106 -0.3396231
000030 40 2d b8 3e ac da 6a 3b 51 1e 0a be 0b 57 6a 3e
       0.35972023 0.0035835905 -0.13488127 0.22884767
000040 ed a8 a9 bd 7e 88 06 3e a5 09 98 bd 66 2b 2f 3d
       -0.08284173 0.13138005 -0.074237145 0.042765997
000050 6f 43 3d be ce b3 d2 3b 65 bf b3 bd 7b 03 b8 bc
       -0.18482755 0.006430126 -0.0877674 -0.022462597
000060 c3 54 4f 3e b5 5e 9a 3d eb 24 28 be ff 2f b3 3c
       0.20247178 0.07537595 -0.16420333 0.021873472
000070 32 c0 49 be 94 cb a3 bd 9b ca 84 3b 7c 58 a9 3d
       -0.19702223 -0.07997814 0.0040524728 0.0826883

gat_layers.1.att_dst f4 [1, 4, 8]
000000 82 8c 3c bd 53 99 68 bd 42 7b e2 39 34 a1 60 3d
       -0.046032436 -0.056786846 0.00043197913 0.054841235
000010 2d 04 0f 3d 12 df aa bc 34 16 29 3e e8 2d 82 3c
       0.03491609 -0.020858321 0.16512376 0.01589103
000020 f5 f2 1f be f5 46 65 bc 13 9c 60 be e6 90 1d 3e
       -0.15620025 -0.013993968 -0.21934538 0.15387306
000030 ce ad a1 be 40 92 de be 8b 5b 5d 3b 15 9a 24 be
       -0.31577915 -0.43470955 0.0033776488 -0.16074403
000040 21 af 0e 3d 69 3a 3d be 68 80 89 3c d4 9e 99 3d
       0.034834985 -0.18479313 0.016784862 0.07500997
000050 cc 47 73 bd 15 ca 9a 3b 3e d8 94 3d 67 7a af 3c
       -0.059394643 0.004723797 0.072678074 0.02142067
000060 bb be 10 3c bd 46 07 bc 82 ba 99 bd fa 59 ac 3b
       0.008834536 -0.008256611 -0.07506277 0.0052597495
000070 4b 96 2a 3d 2f 59 03 3d 53 e2 af bb 36 df 6c 3c
       0.041647237 0.032067474 -0.005367556 0.0144575145

gat_layers.1.bias f4 [32]
000000 d5 86 b0 bd f4 fa 68 bd 7e 14 42 3d aa 97 0c bc
       -0.08619467 -0.056879953 0.047382824 -0.008581081
000010 52 d9 28 3d 59 29 1b 3d 2a a6 86 bc 51 82 a0 3c
       0.041222878 0.03788123 -0.016436655 0.01959339
000020 85 d2 a6 3d 9b d9 03 3d da 68 0f bc 33 c0 ab 3d
       0.08145622 0.032189947 -0.008753026 0.083862685
000030 21 90 e3 bc 24 7c 76 bd 15 d0 cc 3d 29 fe 1a 3d
       -0.027778687 -0.060176983 0.10000626 0.037840042
000040 2e d7 aa 3d 1d 3e 8e bd e9 65 c3 bd 32 a3 db 3d
       0.083418235 -0.06945441 -0.09540922 0.107244864
000050 37 58 a0 3d c9 b7 9a bd ea 11 04 3d 2c af 94 3d
       0.07829326 -0.075545855 0.032243647 0.07259974
000060 2d da 85 3c 61 50 7b 3d 94 c6 77 3d aa 0d 89 3d
       0.016339386 0.061355952 0.060492113 0.06692059
000070 da ec 89 3d 6b 7e 77 bd 4f 90 42 3d 01 ad c0 3d
       0.06734629 -0.060423296 0.047500905 0.09407998

gat_layers.1.lin.weight f4 [32, 32]
000000 c5 33 3b bd b6 6e a2 3d b8 fc 8c bd b3 e6 de bb
       -0.04570367 0.07931273 -0.0688414 -0.006802404
000010 34 ea 74 3c 5f 12 24 bd 04 3a 85 bd 6d 01 70 bd
       0.0149484165 -0.040056583 -0.06505206 -0.05859511
000020 52 62 0b 3c 24 98 a6 3d d3 73 c3 3c fc 6b 07 bd
       0.008507328 0.08134487 0.02385894 -0.033061966
000030 02 54 ae bd e9 c2 01 3d 3d 49 d0 bd 3a 9c 36 be
       -0.08512117 0.03168002 -0.10170219 -0.17833033
000040 6d bd 08 be 44 9a 89 3b 82 94 72 bd dc 46 8d bd
       -0.1335351 0.004199298 -0.05922366 -0.06898281
000050 22 a8 80 bd 25 c2 11 be 3f ec c3 3d be e6 a3 3d
       -0.06282069 -0.14234217 0.09566545 0.08002995
000060 b0 f6 c4 bd 32 9a 3c 3d 40 f7 1e be f2 7c f2 3d
       -0.096173644 0.04604549 -0.15524006 0.11840238
000070 69 03 b2 bd 09 a5 52 3d 5e 19 12 be b2 53 be bd
       -0.08692057 0.05142692 -0.1426749 -0.09293307
000080 81 69 b2 bc 8a 3e 50 bd 98 78 ab bd dd 95 56 3c
       -0.021778824 -0.050840892 -0.08372611 0.013097254
000090 6f e7 b5 3d d5 00 df bd 99 ce 79 3d a4 4d fb bc
       0.08882033 -0.108888306 0.060988043 -0.03067667
0000a0 93 ba 0d bd 2e 24 8c 3b f2 8d 8b 3d 76 c1 8f bd
       -0.03460176 0.004276774 0.06814183 -0.070193216
0000b0 79 c7 04 3e 8a 27 b1 3d 7b 11 31 3d e7 d5 ed bd
       0.12966718 0.086501196 0.04322956 -0.11613064
0000c0 a3 67 fa 3d 3a 5f bb 3d 47 2d 78 3a a2 61 1d bd
       0.122267984 0.091490224 0.0009467196 -0.038423188
0000d0 9b 5d 7d bd 7a 0d 12 be 30 a9 d4 3d 42 94 49 bd
       -0.061856847 -0.14262953 0.103838325 -0.049213655
0000e0 60 b1 b3 3d c6 bd 90 3d 91 e6 f6 bb c6 28 3c bb
       0.08774066 0.070674464 -0.00753481 -0.0028710826
0000f0 ae 87 90 3d 8d 94 44 3d a6 16 aa bd d7 29 c2 3d
       0.07057129 0.04799323 -0.08305101 0.094806366
000100 fd 2b 31 bd 31 8b b7 3d e5 9a 9b 3b cd c4 6f 3d
       -0.04325484 0.089620955 0.0047486895 0.058537293
000110 33 b5 bf bd 54 ce fe 3b 43 7a 68 3c fb 7b 69 bd
       -0.09360733 0.007776061 0.014189306 -0.057003003
000120 5c 54 d4 3b 65 95 f8 3d 6a 3b 53 bd 17 30 91 3a
       0.006479783 0.1213787 -0.051570334 0.0011076954
000130 1c 21 8e 3c a9 bb fb bd eb af b7 3c a8 2b 02 be
       0.017349772 -0.12291653 0.022422751 -0.12711966
000140 a5 09 f1 bd 0e e7 a1 bd 4d de 12 bd 3d 49 b5 3d
       -0.11769418 -0.07905398 -0.035856534 0.0885186
000150 a4 86 ac 3d 01 ef c9 bb ef 38 e4 3d 3b 75 64 3d
       0.08424118 -0.0061625247 0.11143672 0.055775862
000160 79 b2 1d 3d 21 c5 ba 3d ac b7 ab 3d 44 08 00 3e
       0.038500283 0.091196306 0.08384642 0.12503153
000170 91 30 17 3d 4e 77 61 bd be 32 8e bd 32 7b 33 bd
       0.03691155 -0.05504542 -0.06943272 -0.04381866
000180 3f 63 76 bc 10 8d bd 3b ad 8a c5 3c 45 29 9c bb
       -0.015038311 0.005784638 0.024113977 -0.004765662
000190 99 d1 40 3c 6c 2a ca bc 62 26 eb bb c8 1c cf bb
       0.011768722 -0.024678431 -0.0071762064 -0.0063205697
0001a0 6d 18 94 bc b9 15 37 3c dd 00 92 3b 8a 0a 90 bc
       -0.018078053 0.011174613 0.0044556693 -0.01758315
0001b0 d6 e4 a4 3c f0 05 93 bc a9 7b 4d 3a 07 be cd bc
       0.020128649 -0.017947167 0.0007838556 -0.025115026
0001c0 f3 07 ab 3c 87 4a a2 bb 2e 4d 8e bb 47 d7 9e 3c
       0.020877814 -0.004952732 -0.0043426966 0.019389762
0001d0 ec 63 a4 3c 62 e0 98 b9 e1 fd 8b 3a 48 ce 85 3a
       0.020067178 -0.00029158877 0.001068052 0.0010208571
0001e0 ff bf 25 bb 5e ef 9c 3a d4 d3 e4 3c 2d 4e bb ba
       -0.002529144 0.0011973192 0.027933039 -0.0014290266
0001f0 f9 a5 0e bc be e5 6b bc 9c ee b9 bc 99 17 93 bc
       -0.008706563 -0.0143980365 -0.022696786 -0.017955588
000200 5c 5e f8 3d 06 7d c2 bd 17 28 12 be 94 cc e7 3c
       0.121273726 -0.094965026 -0.14273106 0.028295793
000210 cb 39 39 3e 5a 3c da 3d f1 4a eb 3d c5 59 02 bd
       0.18088453 0.106560424 0.11488903 -0.031823892
000220 d6 da 46 3d ef 9f be 3d 18 ec 61 bd 49 d3 1b be
       0.048548542 0.09307849 -0.055156797 -0.15217318
000230 56 f2 70 3d d4 59 fa 3c 1d 26 57 3d 3a 6a 3b 3e
       0.05882486 0.030560412 0.052526582 0.18302241
000240 95 1f 5b 3d 7a 00 d8 bb 95 b5 cd bd c7 af 25 bd
       0.053496916 -0.0065918537 -0.100444 -0.040450837
000250 37 61 c1 3d 9b ac 25 3e 0b 26 9a 3d 88 ba ff 3d
       0.094423704 0.16179125 0.07526787 0.1248675
000260 8a 04 24 bb e5 00 90 3d c2 73 dd 3c 77 58 57 bd
       -0.002502712 0.070314206 0.027032737 -0.0525746
000270 36 90 2f 3d c9 01 8a bd 5f 07 83 bd 82 56 b1 3d
       0.04286214 -0.06738622 -0.0639789 0.08659078
000280 24 e1 9d 3d 12 a6 f1 3b 5d 9a 96 3d 88 bc 00 bd
       0.07708958 0.0073745335 0.07353661 -0.031429797
000290 72 4c 26 bd b5 63 31 bd 35 6b b4 3b a8 5b d8 3c
       -0.040600248 -0.04330798 0.005505944 0.026410893
0002a0 55 7c 84 3c 67 57 ca bc 14 f5 63 3c 22 0e b0 bd
       0.016172567 -0.02469988 0.013913412 -0.085964456
0002b0 b5 4d 63 3d 53 f2 0d bd 70 8d b6 3c 4f 8e b1 3c
       0.05549403 -0.034654927 0.02228424 0.021674303
0002c0 ce 42 95 3a 50 e2 00 bd 96 5c 4e 3b 01 2b 90 3d
       0.0011387707 -0.03146583 0.003148829 0.07039452
0002d0 c8 5b a6 3c 4c 4e 9a 3d 33 b7 83 3c 9f af a3 ba
       0.020307437 0.07534465 0.016078567 -0.0012488252
0002e0 27 2c b4 3c aa 24 47 bc 6a cf 68 3d 88 43 cc bc
       0.02199371 -0.0121547375 0.05683843 -0.024934545
0002f0 38 5c b0 bc ab da 1b bd 29 9b f7 3d d9 16 04 3d
       -0.021528348 -0.038050335 0.12090141 0.03224835
000300 1d 07 f8 bb 09 69 f5 ba 10 a3 88 bd 1f 6c 94 3c
       -0.0075692073 -0.001872332 -0.06671727 0.018117962
000310 c2 a4 48 3c 6e 3c 0d 3d 2b 30 0d 3c cb 6a 85 3c
       0.012246313 0.03448146 0.008617441 0.016286274
000320 ee be 9d 3b 07 db 29 bd 28 5a 48 3c 27 e2 03 be
       0.0048140204 -0.041468646 0.012228526 -0.12879239
000330 15 ea 46 bd f9 82 6b bb ec 5f 04 3c 0b 08 2d bd
       -0.04856308 -0.003593622 0.00807951 -0.042244
000340 11 6b 77 bc 2b 21 01 3b d2 3d 92 ba e1 d6 6f bc
       -0.01510121 0.0019703608 -0.001115734 -0.0146386335
000350 46 66 14 39 22 06 21 bc 1d 80 1e 3c 70 e6 cc 3b
       0.0001415248 -0.009828122 0.009674099 0.006253056
000360 a2 14 59 3b 25 8e a5 3b 33 42 89 bc fa 33 4f bd
       0.003312387 0.0050523453 -0.016755199 -0.050586678
000370 72 3a e1 bb 9d 87 b5 bb af ed 16 3d b5 23 9d bd
       -0.0068734223 -0.005539848 0.036847766 -0.07672826
000380 f8 f1 f2 3b b2 9b 8b bb 73 25 93 3d 28 1c 73 bb
       0.007414099 -0.0042605037 0.07184877 -0.003709564
000390 c4 6e b4 bc e0 a2 5b 3d c9 42 3f 3c 36 e3 97 3b
       -0.022025473 0.053622127 0.011673638 0.00463524
0003a0 21 08 f5 3c 59 30 58 3c e4 cc c8 bb 1d 36 57 3d
       0.029911103 0.013195121 -0.0061279405 0.05254184
0003b0 70 5d 4d 3d 77 6d 80 bc 97 d8 2d 3c 9f 84 c3 bd
       0.050137937 -0.015677197 0.010610721 -0.0954678
0003c0 f3 63 88 3d 8d b9 43 bc 29 86 66 bb ba 3c 82 bb
       0.06659689 -0.011946094 -0.003517518 -0.0039745243
0003d0 5f ae 16 bc 73 20 96 bd b3 5a 71 3c 1d 98 22 ba
       -0.009196847 -0.07330408 0.014731097 -0.0006202476
0003e0 98 9c 98 3c 48 76 db 3b b9 7c 43 bd 70 91 22 bc
       0.018629357 0.00669745 -0.047726367 -0.00992237
0003f0 8c 2a 0f 3c 98 83 d4 b9 35 b6 bc 3d e7 c1 e3 bc
       0.008738171 -0.00040533836 0.09214441 -0.02780242

residuals.0.weight f4 [32, 4]
000000 eb 3c 0c bf 98 6b 2d be 1f ab 32 bd fb 45 5b bb
       -0.54780453 -0.16935575 -0.043620225 -0.003345846
000010 d5 68 1e 3d 15 ae ac bd 04 9e e3 bc 26 21 54 bb
       0.038674194 -0.08431641 -0.027785309 -0.003236839
000020 7e d4 42 3e 08 03 a4 3e 4e 55 ed 3d 99 8d 36 3c
       0.19026372 0.32033563 0.11588536 0.011142158
000030 86 da cb 3e 01 04 f6 be 77 6d 90 bd de cd 4c bc
       0.39815158 -0.4804993 -0.07052129 -0.012500254
000040 a2 4f d7 3d f1 85 7b 3d 4f 73 07 3e 55 c5 75 3c
       0.10513236 0.061407033 0.1322758 0.015000661
000050 75 63 4c be a4 12 8a 3e 6c 9b 12 bd 49 77 13 bc
       -0.19959815 0.26967347 -0.035792753 -0.009000608
000060 f5 b4 00 bd 01 ca ee 39 51 1c 08 bd 4c ad 84 bb
       -0.031422574 0.00045545402 -0.03323013 -0.004048979
000070 29 9f ef bc 7c 94 53 3a 89 0a 3e bb 51 3a fa 3a
       -0.029250698 0.0008071137 -0.0028997979 0.0019090866
000080 e1 2e b7 be fa 18 9a 3d 82 bb ae bd 00 7a 8b ba
       -0.35777953 0.07524295 -0.08531858 -0.0010641217
000090 0c 2b 1c 3e fc 89 0e 3e 26 e2 71 3d 1e 21 da 3b
       0.15250796 0.13919824 0.059053563 0.00665678
0000a0 b6 76 4a 3e 3e 87 5e be aa 12 38 bd 98 1d 81 3a
       0.19771847 -0.21731278 -0.044939674 0.0009850739
0000b0 db 82 8a 3c d9 e0 a1 3e ca 4b 82 3d 1e 09 47 3c
       0.0169081 0.31616858 0.06362112 0.01214817
0000c0 8c 42 b6 3d 52 27 09 3e 37 10 fa 3d c0 ba 0a 3a
       0.088994116 0.13393906 0.12210124 0.000529211
0000d0 76 59 88 be 1e 7e 7c be ad ec 99 bd 2d f1 07 3c
       -0.26630753 -0.24657485 -0.075158454 0.008297247
0000e0 99 00 87 3d d8 eb d0 3c ae 2b ba bb 6f eb 09 3b
       0.06591911 0.025503084 -0.0056814766 0.002104487
0000f0 c9 be 8e be e8 ce fa 3e 90 7b 08 3d c4 82 04 3b
       -0.27879933 0.48985982 0.033320963 0.0020219544
000100 23 39 77 3e b5 87 aa 3d 1c 1d d7 3d a8 4d f7 3b
       0.2414289 0.08326665 0.10503599 0.007547099
000110 10 73 c9 bd 23 ac bd be 3a c3 d4 bd 9c 44 58 bb
       -0.098363996 -0.37045392 -0.10388799 -0.0032999879
000120 31 59 a4 bc 48 2b 7f ba 1b 5b 60 bc e1 12 91 ba
       -0.020062061 -0.00097339274 -0.013693596 -0.0011068248
000130 9f 5b fe 3d 1e 37 ce 3d ab d4 fc 3d d6 c2 be bb
       0.12419819 0.100691065 0.12345251 -0.005821566
000140 f1 84 80 bc 33 2a fa 3d 35 d8 e8 3d fb 40 87 3c
       -0.015688391 0.1221508 0.11369363 0.016510477
000150 2c 46 75 bd 75 5f 8f 3e f3 fc a4 3d 6f 7e 07 3c
       -0.059881374 0.28002515 0.08056059 0.00826989
000160 74 7a 8b 3d 11 1b 3d 3d eb 76 77 bb fc cf 7e ba
       0.068104655 0.04616839 -0.003776009 -0.0009720323
000170 48 be 17 3c 95 19 0e bd 68 05 57 bc b3 06 1d 3b
       0.009261675 -0.034692366 -0.013123848 0.0023960292
000180 18 c8 ff 3d 75 4d cf 3d 3a bc 8b bc 04 c6 3f ba
       0.12489337 0.10122196 -0.017057527 -0.00073155784
000190 d8 56 e7 bc da c0 54 be d0 be 2b bd a7 6b b7 bb
       -0.028239653 -0.20776692 -0.04193002 -0.00559755
0001a0 06 bb 44 3e d1 e5 8e 3d 59 ca 39 3e af 0e 78 3c
       0.19211969 0.06977428 0.18143596 0.01514022
0001b0 41 fa 61 3e b0 de 16 3e 3a b2 54 3d 19 d0 41 3b
       0.2206812 0.14733386 0.051927783 0.0029573499
0001c0 18 0c 2b bb a3 87 de bc 65 66 84 bd 6e 11 94 bb
       -0.0026099738 -0.027164286 -0.06464843 -0.0045186793
0001d0 8c ff b3 bd 23 db b4 be 4c 03 e7 bd b2 6e 02 bc
       -0.08788976 -0.35323438 -0.11279926 -0.007960962
0001e0 4a 2a 21 bf 69 0a 0c 3e 60 1d eb bc 5c 49 25 38
       -0.62955153 0.13675846 -0.02870053 3.9407387e-05
0001f0 c0 05 08 3c d2 a7 ac b9 5f 43 97 bc 8c ee af bb
       0.008302152 -0.00032931432 -0.018464742 -0.005369013

residuals.0.bias f4 [32]
000000 0c 60 7b 3e 68 05 92 3d f3 a8 18 be 6e 7f 58 3e
       0.24548358 0.071299374 -0.14908199 0.2114236
000010 c9 56 cb be 1b 12 56 3e 0e ff 9d 3d 9e d2 86 3b
       -0.3971465 0.20905344 0.077146634 0.004114463
000020 a4 63 d6 3e 55 4e 70 bd 3e f2 63 3e 5b 00 ab be
       0.41872895 -0.058668453 0.22260377 -0.3339871
000030 71 e3 7a be f0 fb 90 3e 82 2e 67 3d 10 30 71 be
       -0.24500825 0.28317213 0.056440838 -0.2355349
000040 58 f0 e2 be 8b c0 c9 3e 7e 8e 38 3d 61 72 4b be
       -0.44323993 0.3940471 0.045057766 -0.19867851
000050 77 94 f2 bd 62 dd 33 bd e0 46 d4 3c b0 48 9b 3d
       -0.11844724 -0.0439123 0.025912702 0.075822234
000060 dc 26 07 3e fa 3f f7 3d 85 e2 f4 be b8 84 53 bc
       0.13198417 0.120727494 -0.4782907 -0.012910061
000070 db ee 15 3e c0 0c b8 3e b1 2e d6 3c 19 97 78 3c
       0.14641897 0.35947227 0.026145311 0.015172743

residuals.1.weight f4 [32, 32]
000000 b6 e0 67 bd 10 23 9f 3c 3c 58 a7 3d f7 94 81 bd
       -0.056610785 0.019425899 0.08171126 -0.06327241
000010 03 4c 11 3e d5 db b6 bc 3d 85 3d bd 78 e6 0c 3c
       0.14189152 -0.022321621 -0.046269644 0.00859987
000020 83 c0 41 bd 57 29 a8 3d 7f f2 c2 bc 65 60 cc bd
       -0.047302734 0.0821101 -0.023797272 -0.09979323
000030 36 ed 98 3d 29 80 f5 bc 50 a0 20 bd fe e6 31 3d
       0.074671194 -0.029968338 -0.039215386 0.043433182
000040 4b 3e 87 3c cf b0 d7 bd 5c 63 23 bd e1 e0 68 3d
       0.016509196 -0.105317704 -0.03988968 0.056855086
000050 46 35 a9 3d 60 69 d1 3d d6 5b 4d 3d ff 0f 2c 3d
       0.08262114 0.10225177 0.05013641 0.042007443
000060 97 19 9d bc 28 cf b7 3b 73 7b 2c 3e f4 43 3c 3d
       -0.019177241 0.0056094117 0.16843967 0.045963243
000070 f1 ad 05 bd bb 03 b9 bd 8e 0d 26 bd f1 f8 d6 3d
       -0.032636587 -0.09033915 -0.04054027 0.104967006
000080 90 22 b8 bd 5e b0 1b bd b0 93 4d 3d 06 ec f3 bc
       -0.08990967 -0.038009994 0.050189674 -0.02977563
000090 6b ea 07 3e d0 5a 8a bd ba cd f3 bc 14 19 b7 3d
       0.13273017 -0.06755602 -0.029761184 0.0894033
0000a0 8f 1a 91 bd 85 92 bc 3d e5 92 59 bd 70 7c 01 3e
       -0.07085144 0.09207634 -0.053118605 0.12645125
0000b0 91 61 ca 3d f4 af 01 be af c8 e7 3c 4e 73 83 3d
       0.098818906 -0.12664777 0.028293936 0.06418477
0000c0 61 5c b7 3d 34 6f 9f bd 9c d0 18 bd 36 22 0c 3e
       0.08953167 -0.07784882 -0.03730832 0.13684925
0000d0 6a d5 3c 3d 3d 71 c6 bc 86 2f 7d bd 4e d1 63 3d
       0.046101965 -0.024223918 -0.0618129 0.05561953
0000e0 c8 d5 7c 3d 76 7c 34 bd 62 eb 9f 3d b3 a1 a7 bd
       0.061727315 -0.044064008 0.078085676 -0.081851386
0000f0 39 a5 31 bd 5e 70 de bd 7e ca b4 bd 04 4b 1d bd
       -0.04337046 -0.10861276 -0.08827685 -0.03840162
000100 5b f3 46 3e 1d 2a 2c 3c d6 3e 88 bc b1 02 aa bd
       0.1942877 0.010508087 -0.016631525 -0.083012946
000110 7a aa 37 be 43 59 eb 3d 1b de 25 3d 8d 22 89 3d
       -0.17936125 0.11491635 0.04049502 0.06696043
000120 6e a1 4a 3e a4 3f c6 bd 1d 91 a9 3d 75 0e b8 bc
       0.19788143 -0.09680107 0.08279631 -0.022467831
000130 27 1d a8 bd cd 0b cf 3d ef e1 03 bd bf cc 12 3e
       -0.08208685 0.10109673 -0.03219789 0.14335917
000140 b5 53 b4 bd 27 e3 d7 3d 0d 6d db 3c bd d4 f2 bd
       -0.08805028 0.10541373 0.026785398 -0.11856983
000150 ed 1d 82 bd 86 50 c7 3d 21 21 15 bd ac 4e a6 bc
       -0.06353364 0.097321555 -0.036408547 -0.020301186
000160 b0 38 62 3d e0 86 b5 3b 58 d9 46 be 5e 15 fd bc
       0.055229843 0.00553976 -0.19418848 -0.030893978
000170 08 c9 3e 3d 53 73 6a 3c c1 4f 07 3e f3 b8 87 bd
       0.046578437 0.014309722 0.13214017 -0.06627073
000180 99 b0 eb bb b5 38 3c ba 8e d8 84 bb 61 e1 b7 bc
       -0.007192683 -0.0007180081 -0.0040541356 -0.022446336
000190 a6 33 1d bb 05 98 1f 3c 9f 27 19 bc a3 71 d8 bb
       -0.0023987084 0.009740834 -0.009347825 -0.0066053434
0001a0 c3 b5 92 ba 55 f0 af 3b 73 f1 75 bc e0 22 c9 bb
       -0.0011193085 0.005369226 -0.015011179 -0.0061381906
0001b0 86 f4 76 3c 31 4b 86 ba 6f ca 19 bc ce b1 22 3d
       0.015072947 -0.0010245797 -0.009386643 0.03972035
0001c0 7c 74 5d b9 a0 39 29 3c c8 69 1b bb e0 fc ba bb
       -0.00021119596 0.01032868 -0.0023714174 -0.0057064146
0001d0 c6 96 db 3b e3 a0 b7 3b 0e dc cc ba dd 45 1e bc
       0.006701323 0.005603896 -0.0015629546 -0.009660211
0001e0 cd a1 8a bc e9 5a 60 3b 61 6e 51 bc a1 65 cd bb
       -0.016922856 0.0034233874 -0.012782664 -0.0062682186
0001f0 9d 1f dd 3a 35 cb 54 bc ed f4 96 3c 7b ec c1 3b
       0.0016870383 -0.012987901 0.018427337 0.0059180832
000200 15 05 66 3d 33 d5 78 3c de bd fd bd b4 7a 06 3e
       0.05615719 0.015187549 -0.1238973 0.13132745
000210 ea 9c a9 bd 36 45 34 3d b3 dc 62 bd 08 4d 6f 3c
       -0.08281882 0.044011317 -0.055386256 0.014605768
000220 09 32 d7 3d b1 92 03 be bd d0 76 3d f7 1d 94 3b
       0.1050759 -0.12848927 0.060257662 0.0045201737
000230 0f 1b c1 bd 91 ab f2 3d 09 5a 91 bc 17 f8 11 be
       -0.09428989 0.1184913 -0.017743127 -0.14254795
000240 17 d3 0e be 5c 37 81 3d 29 b3 f0 3c c3 a2 94 bd
       -0.13947712 0.06309387 0.029382305 -0.07257607
000250 ab 55 d4 bd 75 c4 93 bd e3 e2 f4 3c 34 0b a4 bc
       -0.10367902 -0.072152056 0.029893344 -0.020024873
000260 88 c7 ab 3d c8 b5 d1 3c f2 43 e5 bc 73 48 b4 bc
       0.08387667 0.025599375 -0.0279865 -0.022007203
000270 9b 05 0b bc 7d 7b dc 3d 36 7c 87 3d cb 2f 20 bd
       -0.008485223 0.10765741 0.06615488 -0.03910808
000280 c2 91 07 3d 7c 92 2f 3d 58 d9 b4 3c 20 fa 95 b9
       0.03309799 0.042864308 0.022076294 -0.00028605852
000290 cc ca c9 bd eb 47 a2 3d 4d b4 1f 3d 1d 34 11 3c
       -0.098531336 0.079238735 0.038990308 0.008862522
0002a0 aa ef c9 3d 2c 5d b2 3c db 27 31 3b ce d4 78 bc
       0.098601654 0.021772943 0.0027031812 -0.015187455
0002b0 bf 62 dd bc 97 49 25 3d e7 77 a0 3c f0 c5 be 3c
       -0.027024625 0.040353384 0.019588424 0.023287743
0002c0 0e a2 f0 bd ac 98 90 3c 53 37 48 3d dd 4e d6 bd
       -0.117496595 0.017650925 0.048880886 -0.10464261
0002d0 74 30 37 bd 33 8a 86 3b ef 1f 7f 3c e7 67 cf 3c
       -0.044723943 0.00410583 0.015571578 0.0253181
0002e0 01 ba b7 3c 81 67 f7 3b 74 8c 20 be a4 6e 3e bd
       0.02242756 0.0075501804 -0.15678579 -0.046492234
0002f0 e7 e5 89 3d e8 ed b6 3c 70 b4 c2 3d fe ac bf bb
       0.067333035 0.02233024 0.09507072 -0.0058494797
000300 6a 69 0e 3c 44 20 25 b8 f9 a8 f2 3c a3 03 54 bb
       0.008692125 -3.9369115e-05 0.029621588 -0.00323508
000310 8e 13 e3 3c 67 1f d7 bb c4 14 6b 3b 9d 05 0d bc
       0.027719285 -0.0065650227 0.0035870532 -0.008607295
000320 6d 34 12 bc 9c 89 eb b8 7c e7 16 3c 9f 50 eb 3c
       -0.008923632 -0.00011231305 0.009210464 0.028724967
000330 59 ed f4 bb 7a 70 a6 3c d3 c4 02 3c 02 21 38 bc
       -0.007474583 0.020317305 0.007981497 -0.011238338
000340 44 63 fa b9 80 e7 9a bc 7e 93 78 3b d7 16 b0 3c
       -0.00047757674 -0.018909216 0.003792971 0.021495266
000350 dd 23 89 3c 9b 6c d9 bb 68 76 5f 3c 40 61 b5 3c
       0.016740734 -0.0066352612 0.01363907 0.022141099
000360 c4 56 56 3c 03 b4 96 3b ea 9e ed 3c c4 0b be 3b
       0.01308221 0.004599096 0.02900644 0.0057997424
000370 de 29 22 bd 12 a2 8e bb b9 c4 1d bc 1f 2b c1 bc
       -0.03959071 -0.0043528164 -0.009629422 -0.023580132
000380 98 ea 96 3c 4a 01 80 3c d9 e2 53 3c cd f3 f1 3a
       0.01842241 0.015625615 0.012932503 0.0018459499
000390 d5 28 3b 3c 5c a3 f2 3c f4 1d 25 3c d4 e4 55 3c
       0.011423309 0.029618911 0.010077942 0.013055045
0003a0 98 33 ca 3c 62 eb ec bc 0d bf 9c 3b 39 1f cb 3c
       0.024682805 -0.028920833 0.004783517 0.024795162
0003b0 1e 6a ca ba 56 d5 14 3c 0c 19 f6 3b 2e a1 0e 3d
       -0.0015443002 0.009084066 0.00751031 0.03482168
0003c0 e1 c2 a2 bc 70 75 c8 3a a7 f8 00 3c 59 be 1e bd
       -0.019868316 0.0015293788 0.007871783 -0.03875575
0003d0 21 a8 4e bc 74 b8 29 bd a0 7e 09 bb d2 34 b1 ba
       -0.012613327 -0.041435674 -0.0020980015 -0.001351977
0003e0 ec 8b 2c 3b 80 e5 c5 3c 91 b8 1b bd f0 d9 d3 bc
       0.0026328517 0.024157286 -0.038017813 -0.025860757
0003f0 c8 0d bc 3c c6 59 ac 3b 15 8d e2 3c d6 78 ee 3c
       0.02295579 0.0052597253 0.027655164 0.029110353

residuals.1.bias f4 [32]
000000 3e 47 c9 bd 19 ea e2 bb 08 a8 29 3d de c3 0c bc
       -0.098280415 -0.0069248793 0.041420013 -0.00859162
000010 e4 6e 26 3d 9a 79 30 3d a2 a5 86 bc 8b 53 8d 3c
       0.040633097 0.04308472 -0.016436402 0.01725175
000020 ff ac db 3d 94 d6 c5 3c 21 92 0f bc af 92 21 3e
       0.10726356 0.02415017 -0.008762867 0.15778612
000030 95 db 12 3d e6 ee b5 bd 41 4a 35 3d f6 df 37 3d
       0.03585394 -0.08883457 0.044260267 0.04489132
000040 cb ce d5 3d 28 c3 a1 bd 7f b3 c7 bd fd bc fe 3d
       0.10439833 -0.07898551 -0.09751033 0.124383904
000050 56 ba 97 3d 20 89 a3 bd d5 a6 10 3d b0 5b 7c 3d
       0.07408588 -0.07985139 0.035315353 0.061610878
000060 48 1e 8b 3c c0 70 dd 3c 06 b6 47 3b d8 8b 32 3d
       0.016982213 0.027031302 0.0030473485 0.043590397
000070 24 9b 53 3d b1 91 9b bd d7 db d0 3d 41 3c 49 3d
       0.051661626 -0.07596148 0.10198181 0.04912973

mlp.0.weight f4 [16, 32]
000000 41 34 20 3e d7 1d 1f 3e e5 1d 9e bd 7d 53 76 bd
       0.15644933 0.15538727 -0.07720546 -0.060138214
000010 c1 e3 7a bb 56 6a d7 bd f0 12 36 bd f8 05 07 bd
       -0.0038282725 -0.10518329 -0.044451654 -0.032964677
000020 b5 23 63 bd aa 41 8f bd 03 dc 16 3d 80 09 23 be
       -0.055453975 -0.06994946 0.036830913 -0.15921593
000030 1b 2e dc 3d c4 7a 4b 3e c1 52 57 bd 4f 76 8a bd
       0.107509814 0.1987105 -0.052569155 -0.06760847
000040 38 5b 3b 3c 31 54 77 3d d5 d2 0e 3e db 16 29 3d
       0.011435322 0.060383026 0.13947614 0.041281562
000050 00 80 ae bd 28 97 b5 3d b0 1b d2 3b a4 b2 45 bd
       -0.08520508 0.088667214 0.006411992 -0.048266068
000060 40 21 16 3c f2 a0 d9 bd 22 71 14 be 30 d5 91 3c
       0.009163201 -0.10626401 -0.14496282 0.017801851
000070 60 7e c7 bd 32 3c ee 3d 0e a8 b3 bd 24 f6 16 3d
       -0.09740901 0.11632575 -0.08772288 0.03685583
000080 ef 20 82 3d d1 2b 5a bc 0f e5 47 bd f9 48 e9 bc
       0.06353938 -0.013316111 -0.04880243 -0.028477179
000090 8f 15 a7 bc 0b 46 db bc 05 de 16 3d ce 47 f4 bc
       -0.020396022 -0.026766798 0.036832828 -0.029819395
0000a0 1f af 36 bc 8b 80 84 bc 2c a6 1d 3d a5 02 9f bd
       -0.011150151 -0.016174575 0.038488552 -0.07764176
0000b0 75 2f b2 3d 7c 7c 77 3d c5 18 89 bc 32 86 cf bb
       0.08700458 0.060421452 -0.016735444 -0.006333136
0000c0 4c 52 52 bd 59 5e e5 3d 5d 10 a8 3d b6 55 08 bd
       -0.051348016 0.11199636 0.08206246 -0.033284865
0000d0 7c b8 84 bd ae 05 c7 bc 50 a8 c4 3c dc 8c d3 bc
       -0.064805 -0.0242947 0.024006039 -0.025824003
0000e0 3c 3a 77 bd 86 14 3b bd ba f5 6d bd 8d 08 44 bd
       -0.06035827 -0.04567387 -0.05809567 -0.047859717
0000f0 08 9d 96 bd 60 5d 96 3c 3b 52 07 bc 35 40 9c bd
       -0.0735417 0.018355072 -0.008259351 -0.07629434
000100 93 13 09 bd b9 0a 0b bb e2 1f 37 bc 0f a6 9b b9
       -0.033465933 -0.0021216108 -0.011177035 -0.00029687627
000110 94 09 b2 3b 87 eb 07 3d 0f c6 b5 3b 90 72 c4 3c
       0.0054332707 0.0331836 0.005547292 0.023980409
000120 4a 0c 4b 3d 5d 94 ba 3c 1a 20 1b bd d2 2a c8 3c
       0.049572267 0.022775823 -0.03787241 0.02443448
000130 8a 80 e6 bb 35 3d 13 bd 36 c8 b3 3c 7a c0 70 3c
       -0.007034366 -0.035947043 0.021946054 0.0146943275
000140 92 30 49 3d 6a ed 1f bd 4c 4f 8a bc ba 74 36 3c
       0.049118586 -0.039044775 -0.016883515 0.011136228
000150 8b 60 41 3d 01 59 50 bb 54 1e 48 3c 21 37 f6 3c
       0.04721121 -0.0031791332 0.012214262 0.030055584
000160 c9 7d 07 3d 12 f7 4d 3d 2f 1e 72 3d 48 85 0a 3d
       0.033078942 0.050284453 0.059110817 0.033818513
000170 a5 8c 90 3c d5 4d 1f bc 49 02 d6 3c f7 26 fa 3c
       0.01764519 -0.009723146 0.026124137 0.030536158
000180 66 d3 ce bc 0b 88 a9 bd 13 1c 1d 3c 60 d6 50 bd
       -0.025247287 -0.08277901 0.009589213 -0.050985694
000190 91 ec b7 bc b8 ce 81 3d 4d c5 81 bd 5c 37 8d bd
       -0.02245167 0.063382566 -0.0633646 -0.068953246
0001a0 18 85 bd 3d cc 56 7f 3b c0 3b 08 b8 c5 97 1d 3b
       0.09253901 0.0038961647 -3.2480573e-05 0.002404676
0001b0 f7 32 d0 bd 47 9e 27 be 07 ec a7 bc 89 fa 38 bc
       -0.10165971 -0.16368972 -0.020498289 -0.011290201
0001c0 93 5e 0b 3e 2f 5b d4 bd cf 53 ff 3c 9b 94 da 3d
       0.13610296 -0.103689544 0.031167893 0.106728755
0001d0 24 86 25 3e 7d a3 b0 3d 09 94 82 3d 13 15 81 3d
       0.16164452 0.08624933 0.06375892 0.06302848
0001e0 ed c2 cc 3d e9 73 6b bd 4f ff 85 bd 51 d7 9f 3d
       0.09998117 -0.057483587 -0.06542837 0.0780474
0001f0 8b 74 26 bc e7 12 22 3c 5b f7 1e 3d ae 29 15 3c
       -0.010159622 0.009892202 0.038810115 0.0091041755
000200 70 08 76 3c f3 83 7c bd b0 34 0c 3e 09 50 5c 3d
       0.01501666 -0.061649274 0.13691974 0.053787265
000210 6c b2 a1 bd 0f eb e1 3d 33 3b 5f bd e5 87 00 3e
       -0.078953594 0.11031162 -0.054499816 0.1255184
000220 f3 36 fd bc 67 05 7d 3c 73 2e 03 bd f1 5b 19 3d
       -0.03090999 0.015443183 -0.03202672 0.037441198
000230 f2 30 bc bd b3 b3 dc bd 0e 7a f2 3d 17 03 4f 3d
       -0.09189023 -0.107764624 0.11839686 0.050540056
000240 7b 07 72 3c 61 29 55 bd b5 93 20 3d c3 8a d2 bc
       0.014772291 -0.052041415 0.039203364 -0.025700932
000250 73 45 8d bd a0 42 b2 3c bd 15 27 3d c0 9c 95 bc
       -0.06898012 0.021760285 0.040792216 -0.01826322
000260 f7 a8 e3 bb 34 3e fe 3d 03 f4 bf 3d 28 79 c3 3c
       -0.0069476324 0.12414208 0.093727134 0.023861483
000270 eb fb 58 3c d1 ee 89 bd da 58 5f 3d 8a 84 49 3d
       0.013243656 -0.06735004 0.054528095 0.049198665
000280 73 75 54 3c 84 00 40 3c 4d 53 04 3e 2e 83 57 bb
       0.012967455 0.011718873 0.12922402 -0.0032884586
000290 65 01 c7 3d 2c 30 e9 3d ff 81 99 3d 3d b3 68 bd
       0.09717063 0.11386141 0.07495498 -0.05681156
0002a0 ed ce ef bc 6b 94 04 3b 17 99 c5 bc 49 5f 93 bc
       -0.029273475 0.0020230066 -0.02412085 -0.017989771
0002b0 5f 63 3d bd 6a 5a b3 bc 12 b0 b3 bc 96 bc 13 bd
       -0.046237346 -0.021893699 -0.021934543 -0.03606852
0002c0 7a 95 09 3e c6 d8 9f 3b f7 b0 4b bd 35 38 93 3d
       0.13435927 0.0048781363 -0.049729314 0.07188455
0002d0 fb 5f 0f bd 9c 98 9d bd f0 6e fb bb 32 84 3b 3d
       -0.035003643 -0.076951236 -0.007673137 0.04578037
0002e0 e7 58 ba 3d 2c 30 50 3c 4c 91 ce 3d 7d 96 8b 3c
       0.09098988 0.012706798 0.10086307 0.017039532
0002f0 f8 37 32 3d b6 af ac bd 3d e3 ae 3d fb 56 21 3d
       0.043510407 -0.08431952 0.08539436 0.03938959
000300 c9 e3 39 bd 4c 95 37 bd 37 bf 92 bc 53 03 15 3d
       -0.04538325 -0.044820115 -0.017913444 0.036380123
000310 e7 41 c1 3d 45 e5 a3 3d e8 c3 1f 3d 44 44 9c 3d
       0.09436398 0.08002714 0.03900519 0.07630208
000320 e6 c9 54 3d 91 67 93 3d 5c 90 5d bc 74 37 76 bc
       0.051950358 0.07197488 -0.0135231875 -0.0150278695
000330 4b 40 c0 bc 60 d8 b8 bb 97 06 a2 3c cb e0 99 bc
       -0.023468157 -0.0056410283 0.019778533 -0.018783947
000340 b0 8f e1 3d 0b ba ae bd 8f 9c fa bc 32 5e aa 3d
       0.11013734 -0.08531579 -0.030592231 0.083187476
000350 9c 89 58 3d 7c eb fc bc 47 14 27 bd 0c 9c ef 3d
       0.05286561 -0.030874006 -0.040790822 0.116996855
000360 6f c5 a5 3d c1 ae 62 3d b6 5d 26 bb 8e e1 99 3d
       0.08094298 0.05534244 -0.0025385446 0.07513724
000370 38 b0 10 3d 55 ae e7 39 73 6b 94 3d bc 03 f3 3c
       0.035324305 0.0004418964 0.07247057 0.029664867
000380 01 b1 a5 bd db 3c ee bc d2 3b 51 3d 7f 21 ac bd
       -0.080904014 -0.029081753 0.05108244 -0.084048264
000390 a0 a8 fc 3d 7d bc 87 bd 4f 79 9c bd 23 03 9f 3c
       0.1233685 -0.06627748 -0.07640325 0.019410675
0003a0 80 69 ee 3d a0 d9 cd 3d db 7c b2 bd c5 ad c2 3c
       0.11641216 0.10051274 -0.087152205 0.0237645
0003b0 6b b5 9b bc f0 f1 0f 3d 52 fd 04 3e 01 a6 01 3e
       -0.019007405 0.03514284 0.12987259 0.12660982
0003c0 b7 e8 f9 3d e0 bf 4b 3c 00 74 de bd 14 85 03 3e
       0.1220259 0.012435883 -0.10861969 0.12843734
0003d0 b9 28 3b 3e d3 79 ff bd de d5 11 3c bc 17 c4 3b
       0.18277253 -0.12474408 0.008901088 0.0059842747
0003e0 60 77 c0 bd 23 ea f4 3d 69 39 16 3e d5 80 d6 3d
       -0.09397769 0.119587205 0.14670338 0.104737915
0003f0 e5 6e d1 3d 78 a6 39 3d 50 bd 28 3e c5 ed e5 3d
       0.102262296 0.045324773 0.16478467 0.112269916

mlp.0.bias f4 [16]
000000 35 3e 44 3c 4c 80 a6 bd 9a 49 93 3d 2d 89 30 3d
       0.011977722 -0.081299394 0.07191773 0.04309957
000010 a4 7a ac 3c d5 56 88 3d 22 04 d4 3d 18 d5 23 3e
       0.021054573 0.06657187 0.10352351 0.15999258
000020 45 5a a5 3d fd 8c 81 bd be 7a 89 3d 9e 3f 5f bd
       0.08073858 -0.063257195 0.06712864 -0.05450403
000030 a6 b1 4a 3d 82 9c 80 bd e0 da d6 3d 34 d9 1d 3d
       0.049485825 -0.062798515 0.10490966 0.03853722

mlp.1.weight f4 [1, 16]
000000 bb 69 84 3e 77 79 0e 3e d5 f8 96 bd 3d 9d 45 be
       0.25861916 0.13913523 -0.0737168 -0.19298263
000010 6c 09 4d be 1c 74 1f be 0d f9 28 be 80 15 9d be
       -0.20023125 -0.15571636 -0.16501255 -0.30680466
000020 41 8e de bd 37 61 4f 3e 0a 4a f0 bd 95 ed 06 3e
       -0.108669765 0.20251928 -0.11732872 0.13176568
000030 98 d3 5e bd 1a 7a 82 3e 21 96 16 be 2f c9 84 3e
       -0.05440101 0.2548378 -0.14705707 0.2593474
