best_model_spl.pt (torch, 18637 bytes, 15 tensors)

gat_layers.0.att_src f4 [1, 4, 8]
00000000: eb2d 043f 4eb7 143f 9afa a1bd 8bf9 bcbe
00000010: 26a4 0f3f d105 1a3f f849 79bd a725 7d3e
00000020: 414c de3e 70cb cabe 3eae 3dbd c255 f6be
00000030: 8052 ac3e 9ad1 b13d 76f6 d3be 1582 1fbf
00000040: f964 9c3d 6895 bdbd 05b0 b7be 640f 48be
00000050: b7c9 ca3d 035c f2be bb16 e3bc 28ca f73d
00000060: b3a0 8bbe 14fc 823e cc02 bebe 2877 583e
00000070: ba95 b0be 714c 72be d2bb 10be 56ef 1cbe
0.51632565 0.580922 -0.079091266 -0.36909136 0.56109846 0.60165125 -0.060861558 0.24721394
0.43417552 -0.39608335 -0.04630875 -0.48112303 0.33656693 0.086825565 -0.41398972 -0.62307864
0.076364465 -0.092570126 -0.3587648 -0.19537121 0.09901755 -0.47335824 -0.0277208 0.12099105
-0.2727104 0.25582945 -0.3711151 0.21139205 -0.34489232 -0.23661973 -0.14134148 -0.15325674

gat_layers.0.att_dst f4 [1, 4, 8]
00000000: a334 45be cb37 ef3e 850f 473c 7a7f 943e
00000010: 153c 993e 1a21 c1be 5b35 f5bc 3f1e 83be
00000020: ff0d 81be 658c e23e da9f 69be 77e1 63be
00000030: 1d44 42bd 4591 193e ff72 14bd e66d 4d3e
00000040: ed31 82be 85bf 0dbe 62e1 0b3d 70f1 9e3c
00000050: e0e2 803d afd6 31be 4213 a0bc c5af adbe
00000060: 8b26 ba3e 43ef 9abe 30e5 a43e fd04 213d
00000070: 92e8 783e 5800 99be fe39 313e 8945 7abe
-0.1925836 0.46722254 0.012149696 0.29003507 0.2992865 -0.37720567 -0.029932668 -0.25609013
-0.2520599 0.44247738 -0.22814885 -0.22253977 -0.04742824 0.14996822 -0.03624248 0.20061454
-0.25428715 -0.1384259 0.03415049 0.019402236 0.06293273 -0.17367052 -0.019540433 -0.33923164
0.3635753 -0.30260667 0.32206106 0.039311398 0.24307469 -0.29883075 0.17307279 -0.24440588

gat_layers.0.bias f4 [32]
00000000: 73a4 2abd 8868 44bd 494e 6d3d b9fd 80bd
00000010: 8c9b a4bd d370 983c 97e9 903c f87a cbbd
00000020: ee8f 97bd 210b 10bd e923 a13a a58a 023e
00000030: b804 743d d1a2 753d 48b9 9a3d 39e1 8e3d
00000040: 09f5 363b da69 e3bd 5f2a bfbd a27b 61bd
00000050: 1079 a6bd f5a4 c63d 2a51 123d 56b5 b43d
00000060: 2ffb fabd 17ef c1bd 6f2e 3ebd bdc8 36bd
00000070: 8ee8 123d 5e46 a9bd f809 ddba 0755 7d3d
-0.041660737 -0.04795125 0.057935987 -0.06298394 -0.08037481 0.018608486 0.01768951 -0.09935564
-0.07400499 -0.035166863 0.0012294027 0.12748201 0.059574813 0.059969727 0.07554871 0.069765516
0.0027917048 -0.11104174 -0.093342535 -0.055049546 -0.081285596 0.09699432 0.035721935 0.088236496
-0.12254941 -0.09469431 -0.046431 -0.044625033 0.035866313 -0.082653746 -0.0016863933 0.061848667

gat_layers.0.lin.weight f4 [32, 4]
00000000: a6a1 a3be b25a dabe ee69 c1bc a0d5 e339
00000010: 954a 64be be03 0bbe cd98 933c 4e66 01bc
00000020: 13a2 a4be cc4f 903e 6d8b c8bd c0ad c6bd
00000030: d3ed 1abe c168 8ebe 967a b5bd b232 043a
00000040: f9d7 a23d 9010 513e 8925 373e 31d0 f1bc
00000050: b101 873e ac42 483e 1c08 3c3c d980 e9bb
00000060: 383d c0bd 392f 953e 8b6e 103d f911 b13c
00000070: 4a8a 193e dc26 d13d 7e2e 773d d840 5bbd
00000080: 40f8 f3bd 909a 2e3e 8cf6 b23b b60f fa3b
00000090: d5e5 8e3e 7259 4b3e 6e58 c0bd a21a dfbd
000000a0: c0a8 a23e b37e 85be a97e abbc 5e40 0e3c
000000b0: 0370 f3bd eba1 883e ced6 b53d 81e9 b83c
000000c0: 175b 6d3e 0772 823e 0041 24be 1b58 113d
000000d0: 05e7 bb3e b00b 11be 5484 82bd 5e50 5f3b
000000e0: e7c0 21be 218a 863c c698 f93c a723 1d3d
000000f0: aa2e 03be 8178 6c3e d1a3 99bd c35b 4d3c
00000100: ae75 5d3d c04a 4b3e 7a00 09be b307 97bc
00000110: 04bb 2ebd ac65 c1be 9a56 ddbd 0987 983d
00000120: 77ab 3e3e 191d 85be 20ab 9b3d a60c f0bb
00000130: 9a74 9dbe 6b46 36be 293a a0bb 8920 5dbb
00000140: ce2e 68be a11d 5fbe 21d5 483c a3ad a8bd
00000150: d366 8dbd 8ad2 df3e ce28 233d 1579 0cbe
00000160: 5757 1e3e 5847 5f3e c5a8 3b3c 23a4 a63d
00000170: 924a b83e a253 91be 5181 81bd 5786 263b
00000180: 85e4 753d f5ea c8be 2fb1 89bd 9a4f 61bd
00000190: 0235 a6be 4b1a cebe 616a c43b 7997 84bd
000001a0: d273 403e 3558 f63d 5c92 6ebc 6ca2 72bc
000001b0: 582e 993d 3d3c 67be 4be6 cb3d fc91 be3d
000001c0: 32e7 78bd 43c8 1cbd ecf4 523c 2d5c 7d3c
000001d0: 5b98 21be 3743 92bb 9b03 1abb b155 c13b
000001e0: fd79 693d 63aa 41be 78b5 14ba 8ec7 98ba
000001f0: 0338 48bd d20f 36be afd8 29ba 71b6 d1bc
-0.31959265 -0.4264732 -0.023610082 0.00043455977 -0.22294076 -0.13575646 0.018017197 -0.0078979265
-0.32154903 0.2818588 -0.09792218 -0.09701109 -0.15129785 -0.27814296 -0.08861272 0.00050429546
0.0795135 0.20416474 0.17885412 -0.029518219 0.26368478 0.19556683 0.011476543 -0.0071259555
-0.093866765 0.2913759 0.035261672 0.021615015 0.1499416 0.1021249 0.060347073 -0.053528637
-0.11912584 0.17051148 0.0054615196 0.0076312674 0.27909723 0.1985834 -0.093918666 -0.10893752
0.3176937 -0.26073226 -0.02093442 0.0086823385 -0.11886599 0.26686034 0.08878861 0.02257228
0.2317928 0.2547762 -0.1604042 0.035484415 0.3669969 -0.14164615 -0.06372896 0.0034075002
-0.15796243 0.016423287 0.030468356 0.03836408 -0.1281077 0.23092844 -0.075019486 0.012534085
0.054067306 0.19852734 -0.13379088 -0.018436288 -0.04265882 -0.37772882 -0.108075336 0.07447631
0.18620096 -0.25998762 0.07600999 -0.0073257266 -0.30753022 -0.178003 -0.0048897457 -0.0033741316
-0.22674105 -0.21788646 0.012257845 -0.082362436 -0.06904378 0.43715316 0.039833836 -0.13718064
0.15463005 0.21804559 0.011453812 0.08136775 0.35994393 -0.2838412 -0.06323493 0.0025409663
0.060032386 -0.39241758 -0.06723248 -0.055007555 -0.32462317 -0.40254435 0.0059941267 -0.064742036
0.18794182 0.12028543 -0.014561262 -0.014809232 0.074795425 -0.22581573 0.09956034 0.09305188
-0.06076736 -0.038276922 0.012875777 0.015463871 -0.15780775 -0.004463579 -0.0023500684 0.005900108
0.057001103 -0.18912654 -0.0005672793 -0.0011656152 -0.048881542 -0.17779472 -0.0006479127 -0.02559969

gat_layers.1.att_src f4 [1, 4, 8]
00000000: 9de8 eabe 9206 a6be 2018 e9be 1bcc 163f
00000010: 7a7a 893d ff30 803b 066c ce3e 4fbe 153f
00000020: 61e4 033e 10dd 003f 05e0 16bf 9172 93be
00000030: 38b4 ae3e ec3e b8be 7096 afbe 7826 58be
00000040: 3170 11bf aaf3 93be a40f fcbe 179b 7f3e
00000050: 8946 153f 076e 98be 2c5f 123f 8874 df3e
00000060: 1155 ef3e 29e5 ec3d 6148 84be 09ed 86be
00000070: c14f 1bbf e911 0f3f fd3d e7be 2ad4 a9be
-0.45880595 -0.32426888 -0.45526218 0.5890519 0.06712814 0.003912091 0.4031679 0.5849351
0.12880088 0.50337315 -0.58935577 -0.28798345 0.3412187 -0.35985506 -0.34294462 -0.21108425
-0.56811816 -0.28896838 -0.49230683 0.24961506 0.58310753 -0.29771444 0.5717647 0.43643594
0.46744588 0.11567146 -0.2583647 -0.26352718 -0.6066857 0.55886704 -0.4516448 -0.3316968

gat_layers.1.att_dst f4 [1, 4, 8]
00000000: 8a65 c3bd a1bf 723e 92fd 0c3e 3742 5abe
00000010: 5ffe cdbd dbb1 9c3e 3b37 87bd 7eae ed3d
00000020: 73d6 75be 7c01 1a3e c9e1 e63e e524 bcbe
00000030: 6387 f33e 2365 95be ccc3 963e cacb 06bf
00000040: 0098 363e ff0c fbbd b8e8 d93e cb78 983d
00000050: d5c2 3cbd e7e8 b03e 7854 83be 798c b53e
00000060: f8bb 36be f98b ff3e 7699 bfbe 2e30 21bf
00000070: 3459 ddbc c807 153f 5dbb 91be d292 eebe
-0.095408514 0.23705913 0.13768604 -0.21314321 -0.10058283 0.30604443 -0.06602331 0.11605547
-0.24007587 0.15039629 0.45094135 -0.36746898 0.4756423 -0.29178724 0.29446256 -0.5265471
0.17831421 -0.12258338 0.42560363 0.074449144 -0.046084244 0.3455269 -0.25650382 0.35458735
-0.17845142 0.49911478 -0.3742177 -0.6296414 -0.027020074 0.58215 -0.2846326 -0.4659639

gat_layers.1.bias f4 [32]
00000000: 057e 043c 1d9e 923d 71b5 d0bc db3a 14bb
00000010: 86a8 5dbd 35b3 413d 9108 9cbb 9a25 853d
00000020: a227 503d bbf0 10bd 851b 00ba 2044 07bd
00000030: 521d cdbc da2a 0b3d 83ba 5cbd 7b43 353d
00000040: 5ccc 77bd 7d0f 863c ca72 663d 4495 5bbd
00000050: 1918 afbb 15a2 58bd 98a8 bb3c 2926 3ebd
00000060: c794 e3bc f9a9 1a3d 0a94 003d 3d1a 8abd
00000070: c166 6bbd cb40 52bc 15f4 99bd 7692 4b3d
0.008086686 0.07159064 -0.025477143 -0.0022618088 -0.054115795 0.047290046 -0.0047617634 0.065013126
0.050819047 -0.03538583 -0.0004886913 -0.033023953 -0.025038395 0.033976413 -0.05388881 0.044253808
-0.060497627 0.016364807 0.056261815 -0.053609148 -0.005343449 -0.05288895 0.02290754 -0.04642311
-0.027780904 0.037759755 0.03139118 -0.06743286 -0.05747104 -0.012832831 -0.07517258 0.049700223

gat_layers.1.lin.weight f4 [32, 32]
00000000: 6634 3c3d adb5 a13d a6d1 733e d5dd cf3d
00000010: 6d26 69be afa2 0e3e 78e0 0b3e 94b3 873e
00000020: bb2b 6f3e 7a1f dc3d bb8c 853e 6684 08be
00000030: 6efd 11be 256c cabd 0643 5bbe a885 16bd
00000040: 04e0 143e a16c 0ebe 77b0 7d3d 8217 33be
00000050: d3ae a33d 80d6 1e3e 33e5 2f3e c758 21be
00000060: 1658 643e 3330 ecbd 6ffa 7ebe 4be9 0e3e
00000070: 5622 efbd bad6 a8bd 3871 2bbd e032 c6bd
00000080: b004 8dbe 729e 66be 9e4b 933e 6aad 653c
00000090: f20a 5dbe b8f5 a8bd 499f ebbd 6796 603d
000000a0: fbbb 5c3e 7c36 fbbd aaa3 d2bd 55be e6bd
000000b0: 30cc 1c3c 7f07 303e 03fa e0bd 984c a93d
000000c0: 79d6 293d eef5 2e3d dc1e f5bd 953f 253e
000000d0: c422 903e 9730 ea3d 6986 a73d 29fa 17be
000000e0: 269b 423e 9ddd c7bc 0280 913e 9fd5 47be
000000f0: 2356 00bd 110d e43c 96f4 1ebd 5219 603d
00000100: 559a 4e3e 4ca7 633e 34b4 683e 8a4c 10be
00000110: 0de6 7abe 317a 733e 5f78 6f3e 2059 093d
00000120: 9430 993e c2dc 803d 4798 693d ef2e d2bc
00000130: 223f 21bc 84e2 94bd 70d9 0b3e 9c1f cbbd
00000140: 1857 4dbe a502 59be edcf 153e 063c 8bbd
00000150: fa27 b0bd 46af ff3c 4bfd 9ebe af8d 073e
00000160: 1a3b a13e 6ef5 e13c 8d8f a33d 4ad3 4cbd
00000170: a6b2 a33c 9506 a4bd 0f1c dd3d 610d 483e
00000180: 29d9 cbbd 6c48 423e 15eb 4fbe 14d3 02be
00000190: 1956 fc3c 95e0 183c 922e 913e 8639 80be
000001a0: 6b92 77bd 2b4b 8e3e 7e8f 5d3e c0ec 533e
000001b0: 60c1 4a3c 18a8 b6bd 34ff 46be 8271 43be
000001c0: 991f 20be 0c57 623e 4338 283e e061 403e
000001d0: 6cad f7b9 23f8 5ebe b465 f53d 1745 bdbd
000001e0: 30b4 6e3e fb0f 05be 42d8 7abd c21b 813d
000001f0: c26e 9f3d 5969 f53c 84e7 08be eacd e73c
00000200: ebcd f3bd 3d0c 2dbd dc25 88bc 1e03 f53d
00000210: 3231 973e edce ba3d af70 923e 4cf5 48be
00000220: 661b d8bd 38eb 97bd 6a57 84be 701c 21be
00000230: 20f9 86bd 7407 733d 5b15 0fbd a508 72be
00000240: 450d de3b 0fff 04bd 4703 8a3b 14b9 2d3e
00000250: f4f3 67be 2f3a bd3d a43a 8f3d 4610 8abe
00000260: dd2a 82be feef 14be 285b cf3d 301b 853e
00000270: 5986 283e 5392 bebd 0f9f f6bd dffa 3abb
00000280: 9ccf 3a3e 1428 673e 2101 493e f03e 573e
00000290: 8c88 06be 4f7a b03d d748 e3bd 1d83 683e
000002a0: 675b 863e 4d0a 283d 18f6 e03d d9ea a8bd
000002b0: 98b8 a4bd 06d3 083d 4c7f 8abd 287e 30be
000002c0: ac3c 55be 9061 dd3d 037f ffbc 46fb a5bd
000002d0: 43d4 843e 70c3 183e ca0b 52bb cdde 4e3e
000002e0: b094 933e e505 e93d ac3a 4e3e 3101 47be
000002f0: cdf8 c23d 3f9a 343e e5fb 013e d558 edbd
00000300: 2fb9 c03c 2a5e f73d a7b2 7e3e 01a7 ef3d
00000310: b92f cabd db81 d0bc 97f8 ee3d e414 ee3d
00000320: 432b 383e 3477 bb3d 4711 d2bd 5c85 fd3a
00000330: f48e ebbd 4751 96bc 0be8 aebd f3e7 c93d
00000340: 8e01 843e 96cb a0bd 37ca b43d 1720 033e
00000350: fe99 ee3d f361 5a3e e5c5 2cbe eb4a 593e
00000360: 39b6 c9bd e87a 443e b422 743e e126 18be
00000370: cee9 bf3c d8cf 6cbe f966 28be fa78 ebbd
00000380: 5f8f 87be 2067 46be 6664 6dbe 3cc8 1c3e
00000390: a8bb b4bd c638 623d 3c89 753e e016 393e
000003a0: 0336 813e 6d8e 643e 39a7 44be d79c b23d
000003b0: 9045 7d3d 8dd1 26be d3eb 0ebe 93e6 1e3e
000003c0: 722b af3d 2fc6 16be 9d45 4bbe ae3b 913c
000003d0: 5317 88be 7098 11bd 8613 3a3e 7eb5 893c
000003e0: 90a3 083e ffa7 97be 2f6d 91be 1413 75be
000003f0: de64 44be c0c5 3d3e b9c2 04be f6bd 17be
0.04594841 0.0789598 0.23810443 0.10149733 -0.22768565 0.13929246 0.13659847 0.26504195
0.23356526 0.10748191 0.2608393 -0.13331756 -0.14256832 -0.09883908 -0.21412286 -0.03674856
0.1453858 -0.13908626 0.061935868 -0.17489436 0.079923294 0.15511513 0.17177276 -0.15756522
0.22299227 -0.11532631 -0.2490022 0.13956182 -0.11676471 -0.08244081 -0.04185602 -0.096776724
-0.2754264 -0.2252138 0.2876863 0.014018396 -0.21586207 -0.08249992 -0.115049906 0.054830935
0.21556084 -0.122662514 -0.10285123 -0.11266772 0.0095701665 0.1719036 -0.10985186 0.08266562
0.041464303 0.042715006 -0.119687766 0.16137536 0.28151524 0.11435049 0.081799336 -0.14841522
0.19004497 -0.024397666 0.28417975 -0.19515084 -0.031332146 0.027838262 -0.038807474 0.054711647
0.2017606 0.22231787 0.22724992 -0.14091697 -0.2450182 0.23777081 0.23385762 0.03353226
0.29919875 0.06292106 0.05702999 -0.025657145 -0.009841712 -0.07269767 0.13657165 -0.099181384
-0.20052755 -0.21192415 0.14630099 -0.06798558 -0.08601375 0.031211507 -0.31052622 0.13237642
0.31490403 0.02758285 0.079863645 -0.05000619 0.019982647 -0.08009068 0.107963674 0.19536354
-0.099535294 0.18972939 -0.2030452 -0.12775832 0.030802773 0.009330888 0.28355843 -0.25043887
-0.06044237 0.27791724 0.21636769 0.20695782 0.012375206 -0.0891878 -0.1943329 -0.19086269
-0.15637054 0.22103518 0.16427712 0.18787336 -0.0004724072 -0.21774344 0.11982289 -0.092416935
0.23310924 -0.12994377 -0.061241396 0.063041225 0.07784797 0.02995746 -0.13369566 0.02829643
-0.1190451 -0.042248 -0.016619615 0.11963485 0.2952972 0.09121499 0.28601596 -0.19624823
-0.10552101 -0.07417911 -0.25847942 -0.15733504 -0.065904856 0.05933328 -0.034932476 -0.2363611
0.006776484 -0.032469805 0.0042118165 0.16965133 -0.22651654 0.09239613 0.06993607 -0.2696554
-0.25423327 -0.14544675 0.101248085 0.25997305 0.164575 -0.09305253 -0.12042057 -0.0028530878
0.18243259 0.22573882 0.19629337 0.21020103 -0.13138026 0.086170785 -0.110978775 0.22706266
0.2624161 0.04102545 0.10984439 -0.08247919 -0.08043021 0.033404373 -0.06762561 -0.17235625
-0.20823926 0.10809624 -0.031188494 -0.08104567 0.25943193 0.14918303 -0.0032050484 0.20202179
0.28824377 0.113780774 0.20139569 -0.19434048 0.09520111 0.17636965 0.12693746 -0.11589209
0.023525802 0.12078507 0.24872838 0.11701775 -0.098723836 -0.025452545 0.116685085 0.11625078
0.17985253 0.091535956 -0.10257202 0.0019342112 -0.115018755 -0.018349303 -0.085403524 0.09858694
0.25782436 -0.07851331 0.08827632 0.1280521 0.116504654 0.21326427 -0.16872366 0.21219985
-0.09849209 0.1918751 0.23841363 -0.14858581 0.023426916 -0.23126161 -0.16445531 -0.11497684
-0.2647657 -0.19375277 -0.2318283 0.15310758 -0.08824855 0.055229925 0.23978132 0.18075132
0.2523652 0.22319956 -0.19204415 0.08721321 0.061833918 -0.16290875 -0.13957147 0.15517645
0.085532084 -0.14724039 -0.19850774 0.017728653 -0.26580295 -0.035545766 0.1817151 0.016810175
0.13343644 -0.29620358 -0.28403613 -0.23933059 -0.19179103 0.18532467 -0.12964906 -0.14818558

residuals.0.weight f4 [32, 4]
00000000: 6e89 f2bd 5752 71be b7e2 afbd 0bf2 b33a
00000010: ba4f 6e3e 7274 923e c0a6 9dbc ea82 9d3c
00000020: eecc babd 3328 2e3d 4707 26be 2671 ea3d
00000030: 8fe5 a63e fe0d e3bd 31ba 293e 259f 2bbd
00000040: e314 d83e cd6f 2bbe a28e 3dbe 21de 05bb
00000050: 2259 a6be ffe4 613e 83af 3ebc fe4b d0bd
00000060: d069 0e3e 1066 98be 6e1b e0bb 5165 a83d
00000070: 5806 b63e d879 5c3e 77f6 5f3d 75ef b83d
00000080: cbfa 7cbd 10f7 993e fd17 f8bd a5bb d2bb
00000090: f1c6 c8be 608b ed3e c6f3 c3bd ec0f 563c
000000a0: e1f5 81be 0a77 7b3e 3d9a 0a3e 5024 ca3c
000000b0: d04b d63c 2dc7 33be fbad 97bd 6099 1bbd
000000c0: 7556 d1be 058b aebd 1bbe 5ebe 335d 233e
000000d0: 0556 dcbd 3eaf 8dbe b912 c5bd 3b93 d63c
000000e0: e9b6 afbc a23c e23e 0d8b 433e cdfb 3f3c
000000f0: 8abf 6ebe 6ba5 eabd 2573 70bb a3aa 7c3c
00000100: 29d7 91be 3ee5 113d 8cb3 5abd 6100 22bd
00000110: 7307 d13e d568 ce3e 50cd dfbd 24e5 233b
00000120: 1668 aabe e1f1 ccbe bbf3 26bc 6962 45bd
00000130: 8520 063e 2ebc 99be 3829 febd 1a6a b6bd
00000140: b146 eb3e a95f 6b3e 053e b6bc fe1b 393c
00000150: e4cb b1be ccf8 39be 0fbc 123e 9f8b 01be
00000160: 1bd3 633d 2dfc d5be baba 09be a68b 7d3d
00000170: 9d54 c6be dc1b 3a3e 766f e1bd e2ae 2ebc
00000180: c484 da3e d7a5 ed3e 45df 383e 064f c5bd
00000190: 7c7e 0bbe 2f23 cb3b 3059 aa3a 4e24 acb9
000001a0: 5ba0 613e 1395 ff3a 0d7e 16be 5795 6139
000001b0: 94a2 873e ba77 943d 0c94 443e 0b32 f43d
000001c0: 1a40 a83e 2835 d3be 561a 8d3c 16cb 27bd
000001d0: b452 d4be f0e1 51bc dcaf aabb facd 8dbb
000001e0: 1202 a9be 7c7c 833e 0b01 b2bd 7011 143e
000001f0: 5eac 5b3e 03c3 83be 4615 24bc 3515 a03b
-0.11842619 -0.23566566 -0.08588164 0.0013728751 0.23272601 0.28604466 -0.019244552 0.019227464
-0.091211185 0.042518806 -0.16213714 0.114473626 0.32597014 -0.11086653 0.16574933 -0.04189982
0.42203435 -0.16741867 -0.18511441 -0.0020426589 -0.32489878 0.22060011 -0.011638525 -0.10170744
0.13907552 -0.29765368 -0.0068392074 0.082224496 0.35551715 0.21530855 0.054678407 0.09030048
-0.061762612 0.30071306 -0.121139504 -0.0064310604 -0.3921428 0.46395397 -0.095679805 0.0130653195
-0.25382903 0.24557129 0.135354 0.024675518 0.026159197 -0.17556448 -0.07406231 -0.037988067
-0.40886274 -0.085226096 -0.21752207 0.15953521 -0.107585944 -0.27672762 -0.09622712 0.026193252
-0.021449523 0.44186884 0.19096012 0.011717749 -0.23315254 -0.11457332 -0.0036689725 0.015421542
-0.28484467 0.035619013 -0.053393885 -0.039551143 0.40825996 0.40314355 -0.10927832 0.0025008405
-0.33282536 -0.4002829 -0.010189946 -0.048189554 0.13098343 -0.30026382 -0.124102056 -0.08906956
0.4595237 0.2298571 -0.02224637 0.011298178 -0.3472587 -0.18161315 0.14329551 -0.12650917
0.055621248 -0.41793957 -0.13450137 0.061900757 -0.3873643 0.1817469 -0.110075876 -0.0106618125
0.42679417 0.46415588 0.1805392 -0.09634213 -0.13622469 0.0061992626 0.0012996551 -0.00032833446
0.22033827 0.0019499384 -0.14696522 0.00021513306 0.26491225 0.072493985 0.191971 0.119236074
0.32861406 -0.41251493 0.017224472 -0.040965162 -0.41469347 -0.012810215 -0.0052089524 -0.004327533
-0.33009392 0.25680912 -0.08691605 0.14459777 0.21452472 -0.2573472 -0.010014838 0.0048853406

residuals.0.bias f4 [32]
00000000: 40d7 b33a 3eb0 fabe 6591 e83d 36b4 a33e
00000010: 94dc ccbe cfaa 663e 72bf df3c 9577 cabd
00000020: 02fd 6b3e ad5f 99be 470a 873e b237 663d
00000030: 469a 85be c3de 0dbe d852 8dbe 4b7e 933e
00000040: 34f4 6c3d df39 bfbe 6695 43bc a546 a7bd
00000050: 7bbe cebd 272d 9c3e 6d9b a53e 7735 fd3e
00000060: f111 96be 72f0 883d dc26 bcbe 440b 61be
00000070: da85 bf3e 229e 43be bc8b 293e 88ae 8d3e
0.0013720766 -0.48962587 0.11355857 0.31973428 -0.40012038 0.22526096 0.027312968 -0.0988609
0.23045734 -0.29955807 0.26375028 0.05620546 -0.26094264 -0.13854508 -0.27602267 0.2880729
0.057850078 -0.3734884 -0.011937475 -0.08167771 -0.10094925 0.30503199 0.32345143 0.49454853
-0.29310563 0.06686486 -0.36748397 -0.21976954 0.37406808 -0.19103292 0.1655721 0.2767222

residuals.1.weight f4 [32, 32]
00000000: cb7b f4bc 583b 90bd dba8 f9bd 1098 6c3d
00000010: 07fe 023e 2c05 9dbd 3563 0d3e 69c4 24be
00000020: 5174 6b3d 8e57 0cbe 4efe cebd 8233 2a3e
00000030: 70a9 ae3d 7cae 9a3d 08c6 553d db78 b4bd
00000040: 1e24 02bd b702 cbbc 237e 273c 59ac 823d
00000050: 644d 83bd 1db4 0dbe 2d8a 763d 683e b13d
00000060: af60 1abe d2b1 0bbe 9189 05be a817 eb3a
00000070: da8d ecbc bb64 58bd a27e 983c 8cee 063e
00000080: 5d6c 86ba a064 30be c062 0a3e f1c6 403d
00000090: 60cc dcbd c2d4 3b3d 752b b43d 2be0 30bd
000000a0: 9965 71bc 158e b5bd 0e4c b7bd 74eb 5d3e
000000b0: 2bac 6e3b 3f5a b63d cf8a b33d d973 143e
000000c0: 8de4 213e 4e23 d7bd 2734 28be 26aa 6c3c
000000d0: 58d2 16be d55e 3c3e 9f8d 7f3d f1e2 1d3e
000000e0: a760 43bc e384 e7bd e654 093e af2f 84be
000000f0: b4ff c1bc 82ea afbc 59e6 083e f784 fc3d
00000100: bf08 683c 8987 15bd 0184 c03b 6dda 503d
00000110: d657 c8ba 4985 9cbc 0d61 e2bd 47c4 0e3d
00000120: 06be 0cbe 8afc b9bd cd16 343b b56b c13b
00000130: 6e4d 81bc 1163 babb da36 a43d 33d9 8cbd
00000140: 773a bdbd 52cc fe3c 8c7a bcbb ff75 303d
00000150: e706 9fbd 21da 7dbd 20dc 6dbd ab16 883c
00000160: bd2e fd3c fe42 843c 3f92 c6bd ada8 d13c
00000170: ae8b e9ba 72f3 d83d bfe6 973d 8342 443b
00000180: 4819 e93d 1290 d63d d754 53bd fdbd 0abe
00000190: 3b53 bd3d 2e1e b23c 4939 00be 8c2c 0bbe
000001a0: e7c0 bfbd 8e74 e4bd 6f4e da3d 58e1 1fbc
000001b0: 3ae2 893c 921e 5ebd c12f 903d fa34 663c
000001c0: 646f 263e d646 8dbd c1d0 643c b58c b93d
000001d0: 2bef 0ebe f33b 9e3d 5473 633d d126 04be
000001e0: 79b2 223c 0e61 efbd e74d ad3d 79a5 f7bd
000001f0: 80cf 8abd c478 80bc 66ff 81bd 0e16 04bd
00000200: bd28 f8bd 156c c53c 9da2 163c 0af3 cebd
00000210: c818 01bc a0b4 133d d0b5 aab9 edc6 03bd
00000220: fecb e2bd 7a79 ecbc 4c99 493d a41d 39bd
00000230: 602c a2bd 0add f63c 3bab 92bd 8c48 4b3d
00000240: 0c3d 403d 84d3 ab3c 5a1a 013e b3c8 a63c
00000250: fe06 8ebd 682d 67be f768 67be ecfd 2cbe
00000260: 1490 3f3e 5fd6 b3bd 3fa1 053e 2c5b 2d3e
00000270: 5654 24be dfe0 953b f522 cabd 2f8a abbd
00000280: 567a 733d 9dab c4bd a4cb 85bc ac37 e73d
00000290: 0cca ef3d 2093 053e 3488 e73d 1723 a73d
000002a0: bcad 673c 331d e2bd 730f d53d e9fb 363c
000002b0: 80d4 243e c3f6 913d c3f7 e5bd 396f ac3d
000002c0: 9be6 dd3d d956 07be 1034 263d f43c 28bc
000002d0: fd05 fabc cafa 823d 9aa1 783d 111f a33d
000002e0: 1c99 cf3c 2ca0 0e3c a9e9 333d e3b0 ba3d
000002f0: 0514 103c 400e 2bbe 413f 1a3b 14ea da3d
00000300: 315f 3a3c 84d6 89bd 15d5 c83d c686 493d
00000310: 16d7 cdb9 630e c83d 8e08 903c 31c6 51bd
00000320: 4909 8abd b024 a53d 0288 edbd 447c 87bc
00000330: 7856 00be 82eb 7d3d a44e 273d fc9b 3d3d
00000340: 3b21 aa3d 8f89 0e3e a2e0 df3d 3357 0b3e
00000350: defb e83c 0f59 283d fcf5 1abe 58e6 96bc
00000360: 0cb2 853d 01c3 f53d 1f53 0abd 9f4d 703c
00000370: 40f9 dabd 2ed1 033e b9d5 013d e29a bd3d
00000380: d660 c63c 40dd 84be 7ad0 39bd bb13 0dbe
00000390: 5c5d 1c3e ea48 143d 04bc c23c ab94 01be
000003a0: 0269 4bbd 3d69 e2bd ca4b 66bd 4590 883e
000003b0: 2a3c 6a3e 90ba fb3c 0571 50be 3812 a23d
000003c0: 536f c0bc 94a8 3abe 6ac8 f3bd a81a 2dbd
000003d0: 0cb4 babd 1ada 0abd a3a9 093e 363d 393d
000003e0: 102a df3d 8464 033d a956 90bd 33bf 5cbe
000003f0: 77c6 513e d80e 77bd 28f9 c7bd b634 d3bd
-0.029844185 -0.07042569 -0.1219041 0.057762206 0.12792216 -0.07667002 0.13807376 -0.1609055
0.057483975 -0.13705274 -0.101070985 0.16621211 0.085284114 0.075528115 0.05219081 -0.08812114
-0.031772725 -0.024781568 0.010222944 0.06380529 -0.064112455 -0.13838239 0.06019037 0.08654481
-0.15075944 -0.13642052 -0.13040759 0.0017936127 -0.028876234 -0.05283044 0.01861507 0.13176936
-0.0010255683 -0.17225885 0.13514233 0.047064725 -0.10781169 0.0458572 0.08797351 -0.043182533
-0.014733695 -0.088649906 -0.08950053 0.2167185 0.0036418538 0.08903932 0.0876671 0.14497317
0.15809841 -0.10504781 -0.16426145 0.014444863 -0.14728677 0.1839555 0.06239092 0.15418603
-0.011924899 -0.11304643 0.13411292 -0.2581763 -0.023681499 -0.021474127 0.1336912 0.123300485
0.0141622415 -0.03650621 0.005875111 0.050989557 -0.0015284966 -0.019106524 -0.11053667 0.034855153
-0.13744363 -0.09081371 0.002747941 0.0059027323 -0.015783992 -0.005688079 0.080182746 -0.06877365
-0.09239667 0.031103287 -0.0057519134 0.04308128 -0.077649884 -0.061975602 -0.058071256 0.016612371
0.030906076 0.016145226 -0.09695863 0.025593126 -0.0017818117 0.105933085 0.07417058 0.002994687
0.11381775 0.10476698 -0.05159458 -0.13549037 0.092443906 0.021742906 -0.12521853 -0.13591212
-0.09362965 -0.111550435 0.10659491 -0.009758316 0.016831506 -0.054228373 0.07040358 0.0140507165
0.1625343 -0.068982765 0.013965786 0.09060041 -0.13958423 0.07726278 0.055529907 -0.12905432
0.0099302465 -0.116884336 0.08462124 -0.12092108 -0.06777859 -0.015682586 -0.063475415 -0.032247595
-0.12117145 0.02409939 0.009194043 -0.1010495 -0.0078794435 0.03606093 -0.00032560388 -0.032172132
-0.11074065 -0.028866518 0.04921846 -0.045194283 -0.0791862 0.030134697 -0.07161566 0.049629733
0.04693322 0.020974882 0.12607709 0.020359373 -0.069349274 -0.22575915 -0.22598635 -0.16893739
0.18707305 -0.087811224 0.13049792 0.1692931 -0.16047797 0.004573926 -0.09869949 -0.08375966
0.05944284 -0.09603045 -0.016332455 0.112899154 0.11708459 0.13044405 0.113052756 0.0816099
0.014140543 -0.110407256 0.10403337 0.0111684585 0.16096687 0.07127144 -0.112288974 0.084196515
0.10835 -0.13216724 0.040576994 -0.010268439 -0.030520434 0.063954905 0.06070099 0.0796491
0.025341563 0.00870518 0.043924008 0.0911577 0.0087938355 -0.16704655 0.0023536237 0.10689178
0.011375234 -0.06730369 0.09806267 0.049200796 -0.00039260898 0.09768369 0.017582204 -0.0512144
-0.06740052 0.08063638 -0.11598207 -0.016538747 -0.12532985 0.061992176 0.040846482 0.046291336
0.083071195 0.13919662 0.10931517 0.13607483 0.028440412 0.041100558 -0.15132898 -0.018420383
0.065281 0.12000085 -0.033770677 0.014666944 -0.10692072 0.12872764 0.031697962 0.09258057
0.024216097 -0.2595005 -0.045364834 -0.13777058 0.15269989 0.03620235 0.023771293 -0.12654369
-0.04966069 -0.11055229 -0.05622462 0.2667257 0.22874513 0.030728608 -0.20355614 0.07913631
-0.023490584 -0.1822837 -0.1190346 -0.04226175 -0.091163725 -0.033899404 0.13443618 0.04522439
0.10896695 0.03207828 -0.07047779 -0.21557312 0.20485865 -0.06031689 -0.0976432 -0.10312788

residuals.1.bias f4 [32]
00000000: 88e7 c2bd b81e 2e3e f532 38bd f97c bfbd
00000010: 1c60 30bd 3ac4 313e ef42 fbbc 3245 ce3d
00000020: 0e8b 2d3d f3e7 44be 49ee ee3d 19e4 993d
00000030: b16a 89bc 81ec 013e ad68 cd3d 0c73 e23d
00000040: cbf2 b2bd 35cb 79bd b367 28bc e7c8 c2bd
00000050: b6bc 023e db92 5d3d ec5e b43d 393d 2fbd
00000060: c796 b5bd 55e5 2abd 4090 3abd 9f54 b2bd
00000070: 0840 3ebd 1037 8fbc 97e5 dabd e014 f03b
-0.09516817 0.17003906 -0.04497047 -0.093500085 -0.043060407 0.1736001 -0.030671565 0.10071792
0.04236894 -0.19229107 0.11666543 0.07514209 -0.016774507 0.12687875 0.10029731 0.110571
-0.08737715 -0.06098481 -0.01027863 -0.09510975 0.127673 0.05409513 0.088071674 -0.042782996
-0.08866649 -0.041722614 -0.045547724 -0.087075464 -0.046447784 -0.01748231 -0.10688322 0.0073267072

mlp.0.weight f4 [16, 32]
00000000: 833a 5c3c ad43 34be 1939 22be f4a1 1cbe
00000010: 6e0e 373e 2c7e 0e3e 4a34 263e 7011 853d
00000020: f08a cdbd 6732 513e 45f6 1d3e ea9a c53d
00000030: f41c 403e 2f89 363e 409f ec3d c841 ddbd
00000040: 6203 2bbd 9f17 f23a ab87 00be 4a9d 1bbe
00000050: b4cd ef3d 8ce9 003e c93d 12be 6d83 15be
00000060: f1c6 ca3d 2150 60bd 1506 bc3d 029d 053e
00000070: 7333 a03d 22e2 c43d 7517 e9bc 6158 1fbe
00000080: 23d4 f0bc 4f15 03bd a4ec 5d3c 5fe1 2d3d
00000090: badc 2bbd ba2f 85bd d463 1a3d 3e00 90bc
000000a0: 6045 39bc f2e8 c539 6c60 87bd 0dc4 323c
000000b0: 6230 193d 70d1 5bbd 3a88 16bd 856e 47bc
000000c0: f58c d93c 4084 63bc d839 68bc d129 90bd
000000d0: 82fe e03b bbb8 14ba 1a0b 123d 0232 243c
000000e0: 2f82 ce3c 07fa adbb 44ec 7abd 9de9 2b3c
000000f0: 7d50 e03c 46a8 803c 5bdd 703d 2626 acbc
00000100: 4bf9 083e cefd d13c cfb1 813d 05b6 b33c
00000110: cb89 4dbd 8608 a53d 33cc ae3d a8b2 563e
00000120: 69f1 2cbd 2eee 69bd 183a dcbd 6312 a03a
00000130: 6be1 89bd 7f9a 4b3d 61b8 213d d29c 253e
00000140: 0b3e 943c fc18 973c 0c5a 383e bfbd 1cbe
00000150: 9a1d d33d d58f d93d 9bd7 a5bb 2801 b7bd
00000160: 9856 cdbd 3c6f 173e cdd8 203e cf2c b13c
00000170: 0412 923d 8cbc 993b 0520 2bbe 9e0a fc3c
00000180: 58b4 1ebe 0cd8 bc3c 8060 91bd eb6c fcbd
00000190: 78ea 31be 7f0f 00be c305 74bd 7240 d5bd
000001a0: 75a9 803c 8a67 043c d2f4 3dbe 2e9a e1bd
000001b0: 87bb ad3d 67cd 38be 1feb c53d 29bc 8ebd
000001c0: b787 16bc 80a7 80bd 7e5d 7dbc 2edf 63bc
000001d0: 16b6 cb3d 6ef1 babd f5c0 d63d c3a7 1e3d
000001e0: 8fb9 7bbc fb8b cd3d e6e0 fabd 3dd8 c8bc
000001f0: d9e3 70bc 0dac 173e cbed 223d 2a65 1e3d
00000200: 8cf9 a93d 7d94 113e bde2 723d d1b9 78bd
00000210: 999e adbd 5067 d43d b05c f63d 5344 2abd
00000220: 9899 813d 2ebe e2bd 9bba 97bd ef4b b33d
00000230: 754f ddbc 0e71 23be 459d 47be b610 0d3e
00000240: d418 b0bd 6cd4 7ebd 5b02 233e 7466 d33c
00000250: 8024 9e3d e5c0 9ebd 9108 21be 7762 e5bd
00000260: 89bf 27be 9649 be3d f7ea bebd c6d3 16be
00000270: ca25 0bbe 6310 d93d 567e d4bd 4e56 473c
00000280: 95e9 133d a339 06bc a70e 2ebc 5021 afbd
00000290: c4e3 8dbc d2e7 b5bc d9b8 8e3d 3607 d0bc
000002a0: 5f1a 90bc 0028 99bc c5ed 85bd 64a2 1d3d
000002b0: e276 00bd 93c2 d2bd 2090 fbbc 986b ad3c
000002c0: 9738 7abc 37d0 f23c 8387 d43c c2a2 d03c
000002d0: 35ad 223d 93c9 11bd 7a35 68bc 702c ca3c
000002e0: d946 dfbc 38b1 4e3b 4766 993d 3601 d63c
000002f0: 3966 1cbb aec5 583c 95a4 433d 60e0 b83c
00000300: b988 9f3d cf56 37be 3c74 a73a 4081 d7bd
00000310: 4d0f 033e 3c20 8b3d 4043 9bbb 3294 67bd
00000320: 494c 00be fd6e 89bd 4401 db3d f6fe 7dbc
00000330: 7c21 5fbd 6ed9 763d 2757 093e 5249 ea3d
00000340: a335 9cbd dfdc e23c 31cf a63d 7926 103e
00000350: 628a acbd 45ba 7f3c b0fd 10bd 2c74 1b3d
00000360: 6dbf d8bd 4152 ffbd 6095 ad3d 3cf2 0d3d
00000370: c807 103e d33c ff3d 1e2f 0b3e 0623 3dbd
00000380: 7f1f 16be 3e4b 8cbd 511d c93c a59f b23d
00000390: e2c0 363e b2ac 163e 7367 823c af14 d1bd
000003a0: 4659 d5bd b1d4 503e 2392 bdbd b70e f63c
000003b0: 7c0d db3b df76 6b3d ed2c a63b bdf4 14be
000003c0: 3199 9a3c 0718 a6bd e0ac eabd aced f83d
000003d0: 4372 0fbe 5ace 6cbd 282a b239 4c9d cbbd
000003e0: 7476 913c aa69 593d 921b a3bd fd46 e3bb
000003f0: 17af ef3c 49f7 c33d f306 ccbd c049 a9bd
0.013441685 -0.17603941 -0.15842094 -0.15296155 0.17876598 0.13915318 0.16230884 0.064974666
-0.10036266 0.20429383 0.15425976 0.09648688 0.18761045 0.17825769 0.11553812 -0.108035624
-0.041751273 0.0018470174 -0.12551753 -0.1519672 0.11709157 0.12589091 -0.14281382 -0.14600916
0.09901226 -0.054763917 0.091808476 0.13048175 0.07822313 0.09613444 -0.028453568 -0.15561058
-0.02939803 -0.032002743 0.013545189 0.04245126 -0.041958548 -0.06503244 0.03769286 -0.01757824
-0.011308044 0.00037748326 -0.06610188 0.010911 0.037399657 -0.053666532 -0.03675101 -0.012172346
0.026556471 -0.013886511 -0.014173947 -0.07039226 0.006866277 -0.0005673279 0.03565512 0.010021688
0.02520856 -0.0053093466 -0.061260477 0.010492709 0.02738213 0.015705239 0.05880485 -0.021014284
0.13376348 0.025633719 0.063327424 0.02193738 -0.050180238 0.08058266 0.08535042 0.2096659
-0.042222414 -0.05711191 -0.10753268 0.0012212511 -0.06732448 0.049707886 0.039482478 0.16173103
0.01809599 0.01844453 0.180031 -0.15306757 0.103083804 0.10623137 -0.0050611026 -0.089357674
-0.10026282 0.14788526 0.15707703 0.021627812 0.071323425 0.004691666 -0.16711433 0.030766781
-0.15498483 0.023052238 -0.07098484 -0.12325462 -0.17374599 -0.12505911 -0.059575807 -0.104126826
0.015705803 0.008081326 -0.18550423 -0.110157356 0.084830336 -0.18047105 0.096639864 -0.069694825
-0.00918763 -0.06281948 -0.015464185 -0.013908191 0.099468395 -0.0912808 0.104860224 0.03873421
-0.015364065 0.10036465 -0.12249927 -0.024517173 -0.014702761 0.14811726 0.03977756 0.038670696
0.082995504 0.142168 0.059298266 -0.060724083 -0.08477516 0.10371268 0.120293975 -0.041569065
0.06328124 -0.1107143 -0.07408639 0.087547176 -0.027015427 -0.15961096 -0.19493587 0.13775906
-0.085984856 -0.0622143 0.15918867 0.02580569 0.077218056 -0.077516355 -0.15725924 -0.11200421
-0.16381659 0.09291379 -0.0932216 -0.14729223 -0.13588634 0.10598829 -0.10375659 0.012166573
0.036111433 -0.008192453 -0.010623611 -0.08551276 -0.017320521 -0.022205267 0.06968851 -0.025394063
-0.0175907 -0.018695831 -0.065394916 0.038484946 -0.031363375 -0.10291018 -0.030708373 0.021169469
-0.015272281 0.0296403 0.025943523 0.025468234 0.039715964 -0.035592627 -0.014172906 0.024679393
-0.027255462 0.0031538736 0.07490211 0.026123624 -0.002386464 0.013230724 0.04776438 0.022567928
0.0778975 -0.17904209 0.0012775729 -0.10522699 0.12798806 0.067932576 -0.0047382414 -0.056537814
-0.125291 -0.067106225 0.10693601 -0.015502682 -0.054475293 0.06026595 0.13412152 0.11439766
-0.07627418 0.02769321 0.081449874 0.14077176 -0.08424832 0.015608375 -0.035398185 0.037952587
-0.105833866 -0.124668606 0.08475757 0.03465484 0.14065468 0.12462773 0.13592193 -0.04617598
-0.14660452 -0.06850289 0.024550112 0.08721856 0.17847016 0.14714316 0.015918469 -0.10209023
-0.10417418 0.20393635 -0.09256389 0.030036313 0.006684957 0.05748641 0.0050712735 -0.14546485
0.018871875 -0.081100516 -0.114587545 0.12154707 -0.14008431 -0.05781398 0.00033982215 -0.099421114
0.017756678 0.053079285 -0.07964243 -0.0069359527 0.029258294 0.0956865 -0.09962263 -0.0826602

mlp.0.bias f4 [16]
00000000: d4be 52be 1b46 c9bc 2f43 273e 132d 2e3d
00000010: 69e7 423c 3eb5 633c 61b0 23be 8133 1fbc
00000020: 5d47 c4bd f935 553e 5a9e bc3d 21ff 0fbe
00000030: c2a6 033e 09f9 afbd a99e 073e 723b ccbd
-0.20580608 -0.024569562 0.16334222 0.042523455 0.011895993 0.013898192 -0.15985252 -0.009716869
-0.09583924 0.2082137 0.09209891 -0.14062168 0.12856582 -0.085924216 0.13244118 -0.09972276

mlp.1.weight f4 [1, 16]
00000000: 3f67 683e 9474 4d3c 5540 79be d2aa 183e
00000010: ee30 27be 08dc c9bb c680 5a3d 6e2f be3d
00000020: 6910 40be 9be3 82be d828 4d3e 3957 a03d
00000030: f312 11be 01aa 23be 55dd 69be 861b 0f3e
0.22695635 0.012540001 -0.24340947 0.14908913 -0.16327259 -0.006160263 0.053345464 0.0928639
-0.1875626 -0.25564274 0.20035112 0.078291364 -0.14167385 -0.1598282 -0.22838338 0.13975343
